model_storage/ch7/model1_unconditioned_surname_generation/model.pth (torch, 50761 bytes, 7 tensors)

char_emb.weight f4 [88, 32]
000000 00 00 00 00 00 00 00 00 00 00 00 00 00 00 00 00
       0.0 0.0 0.0 0.0
000010 00 00 00 00 00 00 00 00 00 00 00 00 00 00 00 00
       0.0 0.0 0.0 0.0
000020 00 00 00 00 00 00 00 00 00 00 00 00 00 00 00 00
       0.0 0.0 0.0 0.0
000030 00 00 00 00 00 00 00 00 00 00 00 00 00 00 00 00
       0.0 0.0 0.0 0.0
000040 00 00 00 00 00 00 00 00 00 00 00 00 00 00 00 00
       0.0 0.0 0.0 0.0
000050 00 00 00 00 00 00 00 00 00 00 00 00 00 00 00 00
       0.0 0.0 0.0 0.0
000060 00 00 00 00 00 00 00 00 00 00 00 00 00 00 00 00
       0.0 0.0 0.0 0.0
000070 00 00 00 00 00 00 00 00 00 00 00 00 00 00 00 00
       0.0 0.0 0.0 0.0
000080 a7 c0 29 bf 26 a7 80 be 6d 4c 81 3f 81 ed f8 3d
       -0.6630959 -0.25127524 1.0101448 0.12154675
000090 70 33 22 3e 87 27 91 3f eb b2 93 bf 78 c7 98 be
       0.15839934 1.1340188 -1.1538976 -0.29839683
0000a0 ea ed 01 bf 19 86 6c bf ee f4 0b 3f df 54 bf bf
       -0.50753653 -0.92392117 0.5467061 -1.4947776
0000b0 dd 54 9a bf c9 62 12 3f 39 ec 18 bf bb 94 31 bf
       -1.2057148 0.57181984 -0.5973545 -0.6936757
0000c0 03 a1 d2 3f f5 90 4d bf 08 fb ac 3f 4d 45 8d be
       1.6455387 -0.8029931 1.3514109 -0.27591935
0000d0 07 63 c1 bf 9a b4 06 40 52 d4 30 40 45 8e df bf
       -1.5108346 2.104773 2.762959 -1.7465292
0000e0 b5 cd b9 3f f5 50 c1 bf 22 37 52 3f 99 9a 58 be
       1.4515902 -1.5102831 0.82115376 -0.21152724
0000f0 e1 65 47 3f 27 42 c4 3f d8 0b ce 3f eb 73 ce be
       0.7788983 1.5332688 1.6097364 -0.40322813
000100 1b 28 83 bf 60 d3 1c 3f f8 ae 85 be b1 6f f1 bc
       -1.0246614 0.6126003 -0.26110053 -0.029472204
000110 d8 a0 07 bf 6e cb fd 3e cc b1 95 be 15 53 bc bf
       -0.52979803 0.49569267 -0.2923721 -1.4712855
000120 84 4b 15 40 a6 08 0a bf 08 4c af 3e 3b 6a 75 3f
       2.332734 -0.53919446 0.34237695 0.9586522
000130 f4 f1 c9 bf 82 76 a3 3f 30 3f e8 3e 04 07 8e 3e
       -1.5776963 1.2770541 0.45360708 0.27739727
000140 dd f5 39 40 87 9c c4 bf 06 00 a4 3f ad ae 56 3f
       2.9056313 -1.5360268 1.2812507 0.83860284
000150 4b 56 e8 bf 47 3c d0 bf 9e 32 5b 3f 96 4e b1 be
       -1.8151335 -1.6268395 0.8562411 -0.3463027
000160 ea 64 1f 3f ac 6d 37 bf 91 44 59 3f c8 31 4c bf
       0.6226336 -0.7165172 0.8487025 -0.7976346
000170 47 61 df be 8b f3 e9 be aa d9 a7 bf 6d c3 24 bf
       -0.43628904 -0.4569362 -1.3113301 -0.64360696
000180 31 5e d5 bf 08 bd ae bf 26 7f 29 be 1e 56 76 3f
       -1.666937 -1.3651438 -0.1655241 0.96225154
000190 69 39 01 3d 43 ed 3d bf e0 77 98 be 03 9f 8c 3c
       0.03154889 -0.7419016 -0.29778957 0.017165666
0001a0 2f 7a 35 be bf a1 08 be 94 81 96 3e 2d 46 b1 3f
       -0.1772239 -0.13342951 0.29395735 1.3849541
0001b0 1c a1 f7 3d a4 ac 22 40 30 f5 23 bf 60 ac fc bf
       0.12091276 2.5417871 -0.64046 -1.9740105
0001c0 4d bd a8 be d7 65 02 3c b9 1d 6d 3f 1e 39 f1 bf
       -0.32956925 0.007958851 0.9262348 -1.8845556
0001d0 fb f7 2a 3e 8c d0 ea 3e 0e 13 e2 bf 31 03 16 3f
       0.1669616 0.45862234 -1.7662065 0.5859862
0001e0 cd 21 e0 3f d0 ba 8f 3e 90 36 9f 3e b0 5c 27 bf
       1.7510315 0.28072214 0.31096315 -0.65375805
0001f0 33 5a 28 bf ce 0b a3 3e b3 b1 0c bf a5 82 bb bf
       -0.65762633 0.31844944 -0.5495865 -1.4649245
000200 f9 01 0c c0 3d 18 fa 3f 8f 93 91 3f 7b 87 f3 be
       -2.1876204 1.9538647 1.1373156 -0.475643
000210 b1 4c 9a 3f 6f e8 e4 3f 1f b7 a5 be 28 b9 b9 bf
       1.2054654 1.7883433 -0.32366273 -1.450963
000220 4a f7 3c bd 22 9e 0f be c3 5e 69 3f 3d cf e8 3e
       -0.04613427 -0.14025167 0.9116022 0.4547061
000230 00 74 69 3e 45 90 68 bf 47 a0 19 3f 64 b4 2a 3f
       0.22798157 -0.9084514 0.6001019 0.66681504
000240 f2 4b 15 40 be c0 5a 3f b3 2c cc bf 18 1e f5 be
       2.3327603 0.8545035 -1.5951141 -0.47874522
000250 1f 62 89 be ff 76 d8 be c3 8c 6f bf 3a ff a0 3f
       -0.26832673 -0.42278287 -0.9357416 1.2577889
000260 1e 43 59 bf 71 ab 8e 3e 9a 5f 87 3f 43 bc 22 be
       -0.8486804 0.27865174 1.057605 -0.15892129
000270 2b 85 b1 bf 81 d6 43 bf 60 cc bd 3f f4 f6 c6 be
       -1.3868765 -0.7649918 1.4827995 -0.38860285
000280 de c2 96 bf 76 3d c0 3e 00 93 d5 be c9 f2 1d 40
       -1.1778219 0.3754689 -0.41713715 2.4679434
000290 03 e5 46 c0 3d 55 9a 3e 77 02 63 bf 1b 6a 95 be
       -3.1077278 0.30143157 -0.88675636 -0.29182515
0002a0 d9 d2 57 3e 15 43 05 40 29 77 d5 be ab d7 9a be
       0.21076526 2.0822194 -0.41692474 -0.30242667
0002b0 cb a5 b1 bf 83 86 42 bd 78 f1 04 c0 3f 33 c6 bf
       -1.3878721 -0.04749156 -2.077238 -1.5484389
0002c0 0a 9d 43 be fb 16 a1 bf 09 60 3c 3e 7f 2b 76 3d
       -0.19102874 -1.2585138 0.1839601 0.060100075
0002d0 ad a8 f6 3e ac 65 23 3f 64 5b cb bf a7 cd 93 3f
       0.48175564 0.63827014 -1.5887265 1.1547135
0002e0 b0 03 91 3f c9 79 a3 3f dc 8e 29 3f d1 8e 83 bf
       1.132925 1.2771541 0.6623361 -1.0277959
0002f0 65 2b 67 bf 92 f4 0f 40 89 8c c8 3e 11 5e b9 3f
       -0.9030059 2.2493024 0.3916972 1.4481832
000300 a0 03 86 bc c0 d2 ae be a7 21 f6 3f bc 14 ba 3f
       -0.01635915 -0.34145164 1.922902 1.4537578
000310 e0 ab 5b 3f 13 c4 eb be 7e 6e b2 be bd 91 e6 3e
       0.85809135 -0.4604803 -0.34849924 0.45033064
000320 f9 af 09 3e ca ae f0 bf 22 71 a5 3f 67 e6 07 3f
       0.13446034 -1.8803341 1.292515 0.5308594
000330 40 be a1 bf 77 ad 83 bf 72 d1 d8 bc 5e 8e 10 3d
       -1.2636185 -1.0287312 -0.026467059 0.035292022
000340 01 9a f3 3e 25 1a 3f bf 5a 16 53 be 26 66 0d bf
       0.47578433 -0.7464927 -0.20613995 -0.5523399
000350 b1 25 e4 3e 63 78 39 3f 27 5c b5 3f c2 ab 63 3f
       0.44560006 0.7244932 1.4168748 0.88933957
000360 0e 25 2d 3f 0d 4e 69 3f f6 37 00 bf 2a c1 53 bf
       0.67634666 0.9113472 -0.5008539 -0.8271662
000370 1e 54 54 bf 2b 0d bd 3e 8e 13 48 bf 18 64 60 be
       -0.8294085 0.3692411 -0.7815484 -0.21913183
000380 30 94 62 bf 67 c8 d5 bd 9c 3f 72 be 2a a1 a7 be
       -0.88507366 -0.10438614 -0.23657078 -0.32740146
000390 f5 2b bb be 89 6b 4d 3f 3a 5a f3 bb a8 a1 9a be
       -0.36556974 0.8024221 -0.0074265273 -0.3020146
0003a0 e0 0a 92 3f 56 fc d8 bf 1d 64 a1 3e 41 6a 0f c0
       1.1409569 -1.6952007 0.31521693 -2.2408602
0003b0 f8 7c 85 bf 3c 6e df 3d dc db 54 bf 81 64 db be
       -1.0428762 0.109096974 -0.8314798 -0.42850116
0003c0 58 80 d7 3f 04 cd 5c be 17 da 54 bf b4 a6 8a bf
       1.6836042 -0.21562582 -0.8314528 -1.0832124
0003d0 e6 5d c1 3d 1b b1 f1 be 82 9f 0e be 75 17 a3 bf
       0.09441738 -0.47205433 -0.13928035 -1.2741534
0003e0 2f f7 8e be 14 f1 dd 3e b3 64 91 bf f7 51 9b bf
       -0.2792296 0.4334799 -1.1358856 -1.2134389
0003f0 8a ec 60 3f 96 8c e4 bf 3a 16 07 bf cc 1b b2 3f
       0.8786093 -1.7855403 -0.5276829 1.3914733

rnn.weight_ih_l0 f4 [96, 32]
000000 c3 5d 25 be a8 77 e1 3e 13 06 d9 be 6f 3c bd bd
       -0.16149049 0.44036603 -0.42387447 -0.092400424
000010 37 5d f8 bd 1b ab 0f 3e f6 c2 97 be 4d 7b a6 bd
       -0.12127154 0.14030115 -0.2964093 -0.081289865
000020 27 e7 39 3d f6 e5 86 3e ae 4c cb be b2 42 5d bc
       0.04538646 0.2634732 -0.3970694 -0.013504671
000030 b6 9b 91 bc df 3e cb 3e af f4 15 be 49 ea 27 be
       -0.017774444 0.39696404 -0.1464412 -0.16397966
000040 62 fa 42 3e 4b 6c 7a 3e ac 7c 34 3d 50 09 04 be
       0.19040826 0.24455373 0.04406421 -0.12894177
000050 fb b6 72 3e 6c 48 1a bf b8 1b 92 bd bb 0a 66 3d
       0.23702614 -0.60266757 -0.07134193 0.056162577
000060 c2 33 6d be 53 5c b7 3d 77 66 61 3e 65 ec 95 bd
       -0.23164275 0.08953156 0.22011743 -0.07320479
000070 0a 0c 29 3e 84 78 22 bc 8a d4 9c bc a9 d8 3b 3d
       0.16508499 -0.0099164285 -0.019144315 0.04586092
000080 99 53 a3 bd f3 8b 8b 3d 50 79 3d 3e c9 5b 62 be
       -0.07974929 0.068138026 0.18503308 -0.22105326
000090 0d 55 9b 3e 16 c1 f6 3c f5 75 17 be 28 4e 6d 3e
       0.30338326 0.030121367 -0.14791091 0.23174345
0000a0 25 f2 a1 3d 4b 12 a9 3d 42 4d 3b 3e ee 9a 5a 3d
       0.079075135 0.08255442 0.1829119 0.05337041
0000b0 c5 bd ed bd 4c f9 63 be f2 fb 1e 3e fc 28 db bc
       -0.11608461 -0.22263068 0.15525797 -0.026752941
0000c0 34 02 d0 3d b0 f4 4d 3e d1 c7 91 3e 21 c1 8b be
       0.1015667 0.20112872 0.2847276 -0.27295783
0000d0 76 7b 26 3e e8 30 d6 bc d0 2f 6d 3e 9c a1 13 3e
       0.16258034 -0.026146367 0.2316277 0.14417118
0000e0 6c 4f 3c bc c9 8b ee be ad 2d 2e bd 37 c8 fd bd
       -0.011493545 -0.46591023 -0.04252403 -0.123917036
0000f0 ec ac 4a 3e 9d 9a 65 be 17 e3 18 3d 6e cc 37 be
       0.19792527 -0.22422262 0.037325945 -0.17949077
000100 02 3f 0c 3e 50 ac ed 3d 4b 29 fe 3d 6e 64 09 3f
       0.1369591 0.116051316 0.1241022 0.5366887
000110 c0 1a 18 be c2 2a 50 3c 01 1b 8a 3e 92 be b0 3d
       -0.14853954 0.012705507 0.26973727 0.086300984
000120 57 d7 a8 be 0b 71 41 3d 58 cf 4d 3e bf c0 7d 3e
       -0.3297679 0.047226947 0.20098627 0.24780558
000130 22 84 71 3d b4 b2 15 be c2 71 a5 3e 0e d5 e6 3e
       0.058963902 -0.14618951 0.32313353 0.45084423
000140 30 c6 37 be 7b 4d f4 bc 4b 86 26 be f7 d5 b4 3d
       -0.17946696 -0.029822102 -0.16262166 0.08829873
000150 a0 e1 a3 bd b0 89 30 bd 2f 91 4a 3d ab 39 97 3e
       -0.08002019 -0.04310006 0.049454864 0.29536185
000160 f1 da 0b 3e 63 a3 93 3e 83 8d 47 3e 74 b0 4d be
       0.13657738 0.28835592 0.19487576 -0.20086843
000170 87 bd b8 bd 32 79 81 bd 26 d2 b7 bd e7 26 14 bc
       -0.090205245 -0.06321944 -0.089756295 -0.009042478
000180 cc ff 5a 3e 49 da 33 bd b2 45 c9 3d 7f f4 53 3e
       0.21386641 -0.043909345 0.098277465 0.20698737
000190 9e f6 4c 3d bd c4 fd bc e9 b4 17 be b3 50 20 3d
       0.05003988 -0.030977601 -0.14815105 0.03913946
0001a0 24 58 75 bd 9f 19 12 bd 28 93 19 3e 4b aa 33 be
       -0.05989851 -0.035668965 0.14997542 -0.1754543
0001b0 5a 67 50 be 18 fb f1 be be 7d 8c bd 87 b8 83 3e
       -0.20351925 -0.47261882 -0.06859921 0.2572672
0001c0 40 28 97 bd 4f 09 54 be ec 63 8b be f2 ee 9b 3e
       -0.07380724 -0.20706676 -0.27224672 0.30455738
0001d0 56 f2 a2 3e 80 98 0e 3e 9c cf b9 bc 76 00 52 3e
       0.31825513 0.13925362 -0.022682004 0.20507988
0001e0 26 40 08 3e 63 56 16 3e 54 2d 1f be ab 44 cf bd
       0.1330572 0.14681391 -0.15544635 -0.10120519
0001f0 b9 b8 f5 3c fb 26 0e be 89 60 a6 3e 91 dd c6 bd
       0.02999531 -0.13882057 0.32495525 -0.09710229
000200 0d 81 21 bd 83 e3 6b 3e 5d 21 bf bd be 96 8d 3e
       -0.039429713 0.23036008 -0.093325354 0.2765407
000210 ef 83 5b be c2 1a 6f be 21 9c 11 be e6 5c 11 3f
       -0.21437047 -0.23350051 -0.14219715 0.56782377
000220 d7 a6 12 be 02 7e d3 3b 78 e9 2c be 6c 83 05 3d
       -0.14321457 0.0064542303 -0.16885936 0.032596037
000230 d5 fb 9e bc da 43 3d 3e 2d d8 9e 3d 60 14 79 3e
       -0.019407192 0.18482915 0.07756076 0.24324179
000240 09 f3 22 3d 93 d7 ae 3e cf 1a f1 bd 2b c9 4b 3e
       0.039782558 0.34148845 -0.117726915 0.19900958
000250 c3 40 5a be f9 85 ff bd d6 42 88 3c d6 94 c5 3b
       -0.21313767 -0.12476725 0.016633432 0.0060297055
000260 7b 47 1d 3e 09 41 ee be c6 c0 b0 bd a2 1e 80 3e
       0.15359299 -0.46533993 -0.086305186 0.2502337
000270 50 bb 76 bd 16 cc 1a bc 52 57 dd 3e 4d 57 ab bb
       -0.06023723 -0.009448072 0.43230683 -0.005228913
000280 95 be f0 3d 74 9f cb 3c 41 88 cc 3c 31 4b f4 3d
       0.11755101 0.024856307 0.024967315 0.11928404
000290 88 86 b4 3d ae 8b a2 3d 0e 9e d2 bb ee f2 33 3e
       0.08814722 0.07936798 -0.006427533 0.17573139
0002a0 61 b6 b6 3e ec 4d b8 bd 8b a7 0e 3d ea 45 28 3e
       0.3568602 -0.089992374 0.03482775 0.1643292
0002b0 5f 14 a6 bc df 5d 5e be d0 63 b9 bd 3e 46 ed 3c
       -0.020273386 -0.21715496 -0.09052241 0.028964158
0002c0 48 2d 86 3d ef 86 18 bc 6f fe 0f bd d5 63 89 be
       0.065516055 -0.009309514 -0.035154756 -0.26833978
0002d0 c7 f1 ba 3d 40 19 37 3e c6 45 8a bc 8d f4 7f 3e
       0.091281466 0.17880726 -0.016878974 0.24995632
0002e0 fd 15 1b 3e 26 b5 b6 bc cd 31 8f 3e 0e f4 d1 bd
       0.15145107 -0.022303175 0.27967682 -0.10251628
0002f0 e1 8a b7 3d 12 26 f5 3c c3 02 15 3e c4 9d 55 3c
       0.08962036 0.02992538 0.14551835 0.013038103
000300 71 e9 39 3e 07 18 f4 bc 56 4f 84 bd 18 a4 7f 3e
       0.18155457 -0.029796613 -0.06460445 0.2496494
000310 e7 78 08 be a0 7c 26 3e 01 39 33 3c 93 07 8c bd
       -0.1332737 0.16258478 0.010938884 -0.06837382
000320 96 4a dd bc 00 b3 b1 bd d4 1c 97 bd 8f ef c2 bd
       -0.027013104 -0.0867672 -0.073785454 -0.095183484
000330 93 a5 76 be aa 86 1c be ef c2 4f 3c 76 6d 8a bc
       -0.24086599 -0.15285745 0.012680753 -0.016897898
000340 e8 c0 26 be 40 d1 c4 bd 85 bf ba bc 5d 28 55 be
       -0.16284525 -0.09610224 -0.022796402 -0.20816179
000350 44 e8 89 3e af d7 08 3e 89 c6 ca bd 5e b7 04 bd
       0.26935017 0.13363527 -0.09901149 -0.032401435
000360 fd eb d5 3d a6 7b 3c be 23 e3 6b 3d ab db 8d bd
       0.10445402 -0.18406543 0.05758966 -0.06926664
000370 3e 7e 91 be 8c 6e ec bd 47 9e 11 bd 7e 4a 48 be
       -0.28416628 -0.11544523 -0.035551336 -0.19559667
000380 33 35 b9 3d 25 60 c7 3d 56 c2 7b 3e 68 43 a3 3c
       0.0904335 0.09735135 0.24585852 0.019929603
000390 7b 84 6b 3e f5 ef 10 bd e9 70 2d bd c7 d9 87 3e
       0.22999756 -0.03538509 -0.042344008 0.26533338
0003a0 73 e0 16 3e d0 88 43 bd f5 c0 d7 bc 2a 86 c8 3d
       0.14734058 -0.047737896 -0.026337126 0.09791215
0003b0 38 be 03 be 03 8e e2 3c 07 cd 43 3e 61 11 a7 3d
       -0.12865531 0.027655607 0.1912118 0.08157612
0003c0 1a 58 cc bd de 10 75 3b d8 92 1c be 76 d2 a5 bd
       -0.099777415 0.0037394087 -0.15290391 -0.08096783
0003d0 c6 96 75 bd b2 3e 4c bd d9 37 a7 3d e8 8e 8b 3e
       -0.059958242 -0.04986448 0.08164949 0.27257466
0003e0 15 ab 5c 3e 1d 67 1e be 6a 80 b8 ba eb c9 4a be
       0.21549638 -0.15469022 -0.0014076356 -0.19803588
0003f0 ad 50 78 be 47 67 40 be 25 80 0d bc d2 69 98 bb
       -0.24249525 -0.18789397 -0.008636509 -0.0046512866

rnn.weight_hh_l0 f4 [96, 32]
000000 43 16 ef 39 c6 54 63 bc f3 03 ad bd 1a f8 4f 3c
       0.0004560222 -0.013875192 -0.08448019 0.012693429
000010 47 a0 dc bd 0d a0 ca bd 23 3a 5d 3c 30 94 30 bd
       -0.10772758 -0.098938085 0.01350263 -0.043110073
000020 36 91 ab be ed cb 3d 3d 33 ab 03 be 40 06 69 be
       -0.33509225 0.046337057 -0.12858276 -0.2275629
000030 53 78 fa 3e 3a a0 90 3e c1 5e 11 3e 47 25 a2 3b
       0.48919925 0.28247243 0.14196302 0.0049482915
000040 1b 47 47 be b9 ae a3 3d 64 be 1b be 77 b2 86 bd
       -0.19460718 0.0799231 -0.15209347 -0.06577008
000050 10 19 7c 3d 17 38 c0 be 65 e6 ba 3e 65 4e 4b 3d
       0.06154734 -0.37542793 0.36503902 0.04963531
000060 85 96 a2 3c 95 2a 45 3e 73 3e 0a 3f 9a 86 c1 3d
       0.019847164 0.19254525 0.5400154 0.09449501
000070 a5 70 6d 3e 80 4f 05 bd ac 96 5c 3d 57 0f 7c 3d
       0.23187502 -0.03254652 0.05385463 0.061538067
000080 83 26 a2 3e 19 20 c1 3e 1d 81 78 be 84 9b 94 be
       0.31670007 0.377198 -0.24268003 -0.290249
000090 58 ba e8 3d e9 52 32 bd b5 d7 5f 3d 9a 22 bc bd
       0.11363667 -0.0435361 0.054649074 -0.09186287
0000a0 cf 02 6b bd 43 ae 80 3e 5a e8 8a 3d 6d fc eb 3e
       -0.057375725 0.2513295 0.06782599 0.46091023
0000b0 3d 70 98 3e 3f ec 7e be aa 85 99 3e ad 6d cc bd
       0.2977313 -0.24894808 0.2998479 -0.099818565
0000c0 95 35 1c 3c a7 e5 98 3d 46 13 b1 3d 82 71 75 3e
       0.009534259 0.07465678 0.08646254 0.23969081
0000d0 f5 02 20 3e 98 4d a1 be b3 f4 36 bd dd 29 83 bc
       0.15626128 -0.31504512 -0.044666957 -0.016011173
0000e0 24 40 84 bd 77 65 1b 3d b4 b7 9c be 01 47 d5 3d
       -0.06457546 0.03793856 -0.30608904 0.104139335
0000f0 80 bb bb 3d bb 97 34 3d 26 eb 02 3e 3f 76 a0 3d
       0.09166622 0.044090014 0.12785015 0.07835054
000100 5c 5c ff 3d 10 62 48 3f 0a 37 dc be 5f ed 31 be
       0.12468788 0.7827463 -0.4301074 -0.17375706
000110 84 06 e4 3e 90 f8 b5 be 1a fe 58 3d bd b2 20 3e
       0.4453622 -0.355412 0.052976705 0.15693183
000120 3a 2b 31 be 81 fe 36 be f5 2d 10 be 57 49 5f 3d
       -0.17301646 -0.17870523 -0.14080031 0.0545133
000130 44 d6 cc be 1d 3f c3 3d e5 21 79 be 3b 1c 17 3e
       -0.40007222 0.09533522 -0.24329336 0.14756863
000140 f7 88 30 3c 95 91 a3 3e c7 0e ed bd c2 c8 79 3e
       0.010774842 0.31947008 -0.11575084 0.2439299
000150 7e 29 b5 3e 30 4d 08 be d0 7d 4a 3f 3a 52 4b 3e
       0.3538322 -0.13310695 0.79098225 0.19855586
000160 11 ea c8 bc 69 03 fa 3d af d4 77 3e 90 38 1b 3e
       -0.024525674 0.12207682 0.24202226 0.15158296
000170 8c 93 84 3e f0 2d 83 3d 07 7c dd 3d 93 27 83 3e
       0.2589382 0.06405246 0.10814672 0.2561613
000180 60 1f 61 3d 5f 35 c6 3d 70 bd 9a 3e 9f 10 47 be
       0.054961562 0.096781485 0.30222654 -0.19439934
000190 e0 1c 75 3e e9 a6 15 bf 96 54 35 bd da 45 84 3d
       0.23936796 -0.5845781 -0.04427012 0.06458636
0001a0 0e ae 99 3c 55 41 b7 bd d5 a4 8a 3e 5e 28 f9 be
       0.018759754 -0.08948008 0.27078882 -0.4866361
0001b0 c1 48 d2 3e 50 ba 0d 3f ad ab be 3e 78 90 a2 3e
       0.41071132 0.55362415 0.37240353 0.31750846
0001c0 76 44 fc 3b 04 1b 0e be 56 74 c6 3d ea 70 8b 3d
       0.007698591 -0.13877493 0.09690158 0.06808646
0001d0 ad 89 04 3e a0 3f 17 3e 05 fe a4 be 4a 73 17 3e
       0.12943144 0.14770365 -0.32225052 0.14790073
0001e0 08 11 e5 3d 31 96 3d 3e 80 c6 48 3e 93 fe c0 3c
       0.11184889 0.18514325 0.19606972 0.02355889
0001f0 15 c0 6f 3e 78 d8 65 3e 86 3d 1d 3d db 38 1c be
       0.23413117 0.22445858 0.03838875 -0.15256064
000200 66 3d 3d 3d c0 4f d3 3e 57 f4 71 3e a1 d0 25 be
       0.046201132 0.41271782 0.23628365 -0.16192867
000210 95 46 e5 3e 17 b4 ec bc a8 90 df bd 0e 92 84 bd
       0.44780412 -0.028894467 -0.10916263 -0.0647317
000220 7f 65 a2 bd 65 ef f0 3d ac 5d 3c 3d 0e 4e 89 3e
       -0.07929515 0.11764411 0.04598777 0.26817364
000230 b4 f2 09 be d0 79 12 bf 1a a1 6a 3d 39 d6 fb bd
       -0.1347149 -0.5721712 0.057282545 -0.12296719
000240 41 06 ae bd b7 1c dd bb 9c 67 cb bc 43 ad 88 3e
       -0.084972866 -0.006747808 -0.024829678 0.26694688
000250 9a f1 df bc 06 d8 26 bf ad 51 17 3c 2f f8 28 3e
       -0.027336884 -0.65173376 0.009235782 0.16500925
000260 09 48 eb 3c 74 5a 86 bd 9d 7f fc 3c 81 e0 cb bd
       0.028720872 -0.06560221 0.03082257 -0.0995493
000270 6e 18 6f 3e 6c 75 3b 3e 79 e0 fc 3d 5a 12 fe bc
       0.23349163 0.18306512 0.12347502 -0.03101461
000280 6e be 02 be da 69 74 3c ba 05 a5 3d ff 43 d4 bd
       -0.12767956 0.014917815 0.08057733 -0.10364532
000290 44 e2 b5 bd 27 ee c0 bc 42 cd 74 3b bc 1b 10 bd
       -0.08881047 -0.02355106 0.0037353789 -0.0351827
0002a0 97 a4 6c 3e b5 32 43 3d 36 f6 24 3e 78 29 dc bd
       0.23109661 0.04765578 0.16109547 -0.10750097
0002b0 3d 89 8c 3e 52 69 9c 3e 3e d9 4f 3e a1 c3 a0 3d
       0.27448454 0.30549103 0.20297715 0.07849813
0002c0 ff 43 09 be b5 b8 8c bc ef 69 bd bd 56 18 ef bb
       -0.13404845 -0.017177919 -0.09248721 -0.0072966022
0002d0 6b 8e b4 bd f4 88 98 3d 42 98 d6 be 57 64 83 be
       -0.088162266 0.07447997 -0.41913038 -0.2566249
0002e0 83 b5 e9 3c 5d e1 aa 39 dd c2 6c 3e d3 dc 75 be
       0.028528934 0.00032592835 0.2312121 -0.24010019
0002f0 5d ad 21 3e 32 3a 66 3e a7 f7 ae bd e2 b1 01 be
       0.15788789 0.22483137 -0.0854333 -0.12665513
000300 6c 2a 8b bc 74 fd 37 3e 5f c3 ef 3d 5d 80 b2 bd
       -0.016988002 0.17967778 0.11707186 -0.087158896
000310 d0 20 ff 3d 14 ce 52 3e 59 f8 86 bd 09 f6 a7 3d
       0.1245743 0.20586425 -0.06590337 0.08201224
000320 6d bf 7f 3e 5d 12 74 3e 40 01 88 3e d3 3d 9d be
       0.24975367 0.2383513 0.26563454 -0.3071123
000330 5d 8c 73 3d d1 2f b7 3c f3 da 08 3e cc 66 46 be
       0.059460033 0.022361668 0.13364772 -0.19375151
000340 82 54 c7 bd da 54 11 be 2c 44 28 be db 63 8e 3d
       -0.097329155 -0.14192525 -0.16432256 0.0695264
000350 c3 ec df bc e7 62 60 be cf 33 dc bd 96 96 35 3e
       -0.027334576 -0.21912728 -0.10752069 0.17733225
000360 fe cc 2e 3e b2 98 ca 3d 1e 3b 4e 3e 54 e9 1f be
       0.17070386 0.098924056 0.20139739 -0.15616351
000370 e5 24 9a 3e f1 f4 98 3d 95 a9 0a 3e 75 22 ad bd
       0.30106273 0.07468594 0.13541253 -0.08453838
000380 0d a4 c9 be 81 c1 5b 3e 46 44 db bd 3d 78 4f ba
       -0.39382973 0.21460535 -0.107063815 -0.000791434
000390 5f 68 4c 3e 7f 06 6a be 92 bd 9a be 25 6a 39 3e
       0.1996169 -0.2285404 -0.30222756 0.18106897
0003a0 ab 23 2e bd 90 c5 f7 ba eb 76 83 3e 9d b6 38 3e
       -0.042514484 -0.0018903483 0.25676665 0.18038411
0003b0 dc 39 f7 3c 9d e2 0b 3e 84 62 00 bd 91 d0 07 bf
       0.030178957 0.13660665 -0.03134395 -0.5305262
0003c0 a9 47 2e bd 7f 4b 5a be 7a 43 0b be 41 62 97 3e
       -0.04254881 -0.21317862 -0.13599959 0.2956715
0003d0 e2 13 ec bc 50 2f 2f be 37 a2 88 3d 21 60 6f 3d
       -0.028818075 -0.17107892 0.06671565 0.058441285
0003e0 a3 60 5c 3d 14 e4 4d bd 0c 9d c4 3d ca 60 51 bd
       0.053803097 -0.05026634 0.09600267 -0.051117696
0003f0 9e d6 2b 3e e8 36 8d 3e bd fe 74 3d 37 bb 9e 3d
       0.16781089 0.27580953 0.05981325 0.07750552

rnn.bias_ih_l0 f4 [96]
000000 48 92 87 3e c5 75 95 bd 05 a8 92 3b 53 bf 89 3d
       0.2647879 -0.072978534 0.004475596 0.06725945
000010 02 c3 ba bd 7a 12 79 bb b4 16 6a 3e 6c 20 7a 3e
       -0.09119226 -0.0038005398 0.22860223 0.2442643
000020 a4 b7 b4 bd 31 1e 98 3d fa 7e af bd ce c3 b2 3a
       -0.08824089 0.074276336 -0.08569141 0.0013638677
000030 dd 20 c3 3d cb d8 0a be cc 2e 75 3d 79 0b 38 bc
       0.095277525 -0.13559262 0.059859082 -0.011233204
000040 c0 68 ee 3d 56 89 8a 3d 38 d8 5b 3e 52 8e ae 3d
       0.11641073 0.06764476 0.214692 0.08523239
000050 10 fc 36 3e d0 54 3e 3e fe 05 a3 3d de 22 9d bc
       0.17869592 0.18587041 0.07960127 -0.019181665
000060 c2 12 5e 3e 3d 56 5b 3e 7c 0b eb 3d bd e6 a3 3e
       0.21686843 0.21419616 0.114768 0.32011977
000070 3a dd 23 3e be d0 a2 3e d5 9c 48 3d 4f 7e 6a 3e
       0.1600236 0.31799883 0.04897769 0.22899745
000080 be 7f 64 be b6 c5 0a be 0c 57 e2 be cb 73 ef bd
       -0.22314355 -0.13551983 -0.44207036 -0.11692008
000090 c9 5f 5e 3d 7c ef f5 bd bb 4c 8d be 0a 75 10 be
       0.054290567 -0.12008569 -0.27597603 -0.14107147
0000a0 29 59 a2 be 72 d7 ce be 8f 46 61 be 13 a6 8c bd
       -0.3170865 -0.40398747 -0.21999572 -0.06867614
0000b0 5b f4 ce be 7f dd bf be e1 b6 ac bd bc c3 a4 be
       -0.40420803 -0.37473676 -0.08433319 -0.32180583
0000c0 e6 ec 51 be 08 8c 24 be 81 03 d7 bd a3 20 69 bc
       -0.20500526 -0.16069043 -0.10498715 -0.014228973
0000d0 52 13 9f be 22 ec 91 be 61 9c 1c 3d a6 33 4a be
       -0.31069428 -0.28500468 0.038235072 -0.19746265
0000e0 f4 a7 4a bc 2f 92 7e 3d 7a ff 6d bd d6 52 f1 bd
       -0.012369145 0.06215113 -0.05810497 -0.11783378
0000f0 07 ce 6d 3d 70 98 8e be f1 bd 41 be 7b 7d 56 be
       0.05805781 -0.27850676 -0.18920113 -0.20946305
000100 95 6f 48 3d 34 e5 21 3e 65 f8 57 3c 49 d7 2d be
       0.048934538 0.1581009 0.01318178 -0.16976656
000110 9a 34 8c 3e 08 8f dc 3d 5e fb a3 bd 6f 7d 56 3e
       0.27383882 0.107694685 -0.08006929 0.20946287
000120 7b 3a b6 bd 35 69 79 3e 42 4b 50 be a7 c6 70 3e
       -0.08897873 0.2435654 -0.20341209 0.2351328
000130 4f 70 95 bd e6 e9 a6 bd 2a e0 00 3e d5 55 66 bd
       -0.07296812 -0.08150081 0.12585512 -0.0562342
000140 14 b0 35 bd 4a 62 ce 3a ce 4f 9b b9 47 6a 43 bc
       -0.044357374 0.0015745845 -0.00029623363 -0.011927194
000150 86 8f fd bd df a0 06 be 9f 71 db 3d 89 30 7e bd
       -0.123808905 -0.13147305 0.10715031 -0.062058005
000160 01 92 d4 ba 03 a4 a6 3d 25 cc c2 bd 6d 1f bb bc
       -0.0016217829 0.081367515 -0.09511594 -0.022842133
000170 99 17 85 3e 6b 50 04 3e cd 41 1f 3e 59 b8 e0 bd
       0.25994566 0.12921302 0.15552445 -0.109726615

rnn.bias_hh_l0 f4 [96]
000000 b2 a6 1b 3e f1 c9 e9 3d 9a ad 18 3e 65 71 bb bb
       0.15200308 0.114154704 0.14909974 -0.005720305
000010 38 d3 e2 3d 5f 95 73 3e a3 52 f5 3d d8 d2 06 3e
       0.11075443 0.2378745 0.11978652 0.13166368
000020 73 d7 30 bd 4b fd a8 3e e3 3a dc bd f9 6e ce bd
       -0.04317422 0.33005747 -0.10753419 -0.1007976
000030 33 51 50 bd c5 57 53 be 99 07 45 bd d1 2b 49 3d
       -0.050858688 -0.2063895 -0.04810295 0.049114052
000040 55 9d 89 bc 54 e2 13 be 2e 29 1c 3e 89 16 cf 3a
       -0.016798655 -0.14441806 0.15250084 0.0015799563
000050 f8 c4 5e 3e e1 94 c4 bb 90 04 7a bd cd d4 46 3e
       0.21754825 -0.005999193 -0.061039507 0.19417115
000060 81 6a 89 3c 9d dd 34 bd 64 11 d8 bd 89 58 02 3e
       0.016774418 -0.04415666 -0.10550192 0.12729086
000070 a3 39 d2 3d 55 ec e8 3d 6d 39 ab 3b 39 17 0c 3e
       0.102648996 0.11373202 0.0052253515 0.13680734
000080 73 9f bb be 44 d1 1f be 86 80 e9 be ec d6 b9 be
       -0.36645088 -0.15607172 -0.45605868 -0.36296785
000090 b8 5b 46 be 97 3a ea bc cf b1 78 be 45 89 a9 3c
       -0.19370925 -0.028592391 -0.24286579 0.020695338
0000a0 35 41 91 be 62 8e eb be 8b c8 28 be 41 97 a7 be
       -0.28370062 -0.46007067 -0.16482751 -0.32732585
0000b0 1b 1c e6 be 1c 91 c6 be df a8 58 3b 88 2e 49 be
       -0.44943318 -0.38782585 0.003305964 -0.19646657
0000c0 c0 03 9b be 22 92 d5 be 06 22 22 be 16 a4 09 3d
       -0.302763 -0.41713053 -0.15833291 0.03360375
0000d0 9f 49 0f be 60 73 d0 be c1 17 de bd ad cf 87 3d
       -0.13992928 -0.40713024 -0.108443744 0.06631408
0000e0 32 d1 21 bd 1e 7f 59 be bb b4 50 bd 32 eb d5 be
       -0.039506145 -0.21239898 -0.050953608 -0.41781002
0000f0 05 cf 40 be 78 f5 09 be 85 02 52 be b2 1b 5a be
       -0.18828972 -0.13472545 -0.20508774 -0.21299627
000100 9f 73 14 be b5 27 ae 3e 78 bd 9a 3e 98 5d 9c be
       -0.14497231 0.3401467 0.30222678 -0.30540156
000110 08 09 fd 3d 48 b4 92 3d ab 8e b1 bd dc fa 26 3e
       0.12355238 0.07163292 -0.0866979 0.16306633
000120 f0 fa 5c 3d 9b 48 99 3c 31 80 5e 3e 4f 4d d8 3d
       0.05395025 0.018711379 0.21728589 0.105616204
000130 c9 31 6a 3e ea af 16 3e 19 a1 ac bd 24 52 3e be
       0.22870554 0.14715543 -0.084291644 -0.18586022
000140 41 d3 96 be 12 ad d0 3d 3b 46 f5 bd 3a d5 46 3e
       -0.2945805 0.101892605 -0.11976286 0.19417277
000150 b0 cb 02 be ca b6 68 be 12 69 e1 3d e4 50 19 3e
       -0.12773013 -0.22725978 0.11006369 0.14972264
000160 b2 d2 4a 3e a6 72 4f 3d 5e b8 81 3e 8a 83 1a be
       0.19806936 0.050646447 0.25335974 -0.1508924
000170 28 96 8a 3e ba 3a 91 3e ea 2a 5a 3e fb 28 ab 3c
       0.27067685 0.28365117 0.21305433 0.020893564

fc.weight f4 [88, 32]
000000 39 f8 38 3e fa e9 95 be 3a 88 9c be 8b a9 29 3e
       0.1806344 -0.29280072 -0.30572683 0.16568582
000010 7e 22 95 be 51 a2 a6 3d 22 69 8a 3e 16 e7 e1 be
       -0.29127878 0.08136428 0.27033335 -0.44121617
000020 52 af 56 be a2 06 d2 be 74 95 aa be ca 90 6e bb
       -0.20965317 -0.41020685 -0.3331715 -0.003640222
000030 e8 7b 86 be 8d 32 65 be 51 b3 46 be fe 45 83 3e
       -0.26266408 -0.22382565 -0.19404341 0.25639337
000040 3f 15 80 3e 0c 59 84 3c 32 f3 88 3e ee 09 c6 bd
       0.2501621 0.016155742 0.26748043 -0.09669863
000050 90 b9 71 3e a7 a3 ce bb cd e9 b2 be 20 0b 8f be
       0.23605943 -0.00630613 -0.34944 -0.27938175
000060 95 c5 73 be 15 8f 4a be 46 f7 18 be 7a 51 e5 3e
       -0.2380584 -0.19781144 -0.14938077 0.44788724
000070 b1 8d e5 be 4b 0a c8 be 67 c5 35 be 42 5e 28 3e
       -0.44834664 -0.39070353 -0.17751084 0.16442207
000080 c6 dd 40 3e 24 8a 4b be f6 d1 9d be a8 74 56 3e
       0.188346 -0.19876915 -0.3082425 0.20942938
000090 d7 42 d0 be 5f 49 e1 3d bb 45 d6 3e 1b c4 ea be
       -0.40675995 0.110003226 0.41850075 -0.45852742
0000a0 24 64 43 be 8a ba c2 be b5 4c c3 be f8 4b e1 3d
       -0.1908117 -0.38032943 -0.3814446 0.11000818
0000b0 71 54 13 be 9a d8 ef bd 21 d6 27 be 4d 23 25 3e
       -0.1438768 -0.11711235 -0.16390277 0.16126747
0000c0 5c 1c 52 3e 18 7b 0b bd 44 18 99 3e 26 db aa be
       0.2051863 -0.03405294 0.29901326 -0.33370322
0000d0 96 37 b8 3e 8f 72 8a 3d 57 ca 75 be e0 c2 bf be
       0.3597991 0.067601316 -0.24002968 -0.37453365
0000e0 71 80 30 be a3 64 c6 be 84 6a 96 be e7 82 f5 3e
       -0.17236497 -0.38748655 -0.2937814 0.47951433
0000f0 81 94 b3 be 66 44 05 bf c5 94 38 be 8c f4 5e 3e
       -0.35074237 -0.5205749 -0.18025501 0.21772975
000100 ca 97 4f 3e bf 11 92 be 8f 5f ab be 32 6d 63 3e
       0.20272747 -0.28529164 -0.33471343 0.22209623
000110 84 b7 c2 be 33 d8 fc 3d 8d c8 14 3f 49 2b 08 bf
       -0.38030636 0.12345924 0.58118516 -0.5319105
000120 20 b3 eb bd ce 28 8e be af 77 b1 be ad 77 d9 3d
       -0.11508775 -0.27765507 -0.34661624 0.106185295
000130 bf 42 89 be 6e 88 15 be 4f 76 23 be 69 9f 6a 3e
       -0.26808736 -0.14602825 -0.159631 0.22912373
000140 82 eb 90 3e 0f 67 05 3c a0 2c 68 3e 01 3a 32 be
       0.28304678 0.008142247 0.22673273 -0.17404939
000150 6a 36 8c 3e ee 2c f5 3c 98 e1 4f be e3 23 cc be
       0.27385265 0.02992865 -0.20300901 -0.3987113
000160 85 c7 8c be 83 f8 da be 83 28 b8 be c0 d7 b1 3e
       -0.2749597 -0.42767724 -0.35968408 0.34734917
000170 78 11 65 be 3b 48 93 be 3c a3 a9 be 7d fb 91 3e
       -0.22369945 -0.28766045 -0.3313235 0.28512183
000180 79 d8 af be 16 dc 62 3e 46 75 77 3d 87 1f 6c be
       -0.34344843 0.22154269 0.060414575 -0.23058902
000190 46 6f 10 bf c7 19 c6 3e 62 79 34 be fb 69 3c 3e
       -0.5641979 0.38691542 -0.17624429 0.18399803
0001a0 74 ac 7d 3e 90 18 4b 3e be 2b ec 3c 84 6e 47 be
       0.24772817 0.19833589 0.028829452 -0.19475752
0001b0 4a af c9 3e fd f0 2c be e6 d0 8c 3e a9 0e 54 be
       0.39391547 -0.16888805 0.27503127 -0.20708717
0001c0 aa 56 6f be 0b 74 a0 3e d6 5c 9c be 5a f3 66 3e
       -0.23372903 0.31338534 -0.30539578 0.22553769
0001d0 34 87 7d be a4 dd 6d be 24 81 c0 be c5 93 f7 be
       -0.24758607 -0.2322908 -0.37598526 -0.48354927
0001e0 dd b8 5c 3e 4b 03 85 3e 40 06 b3 be 46 f1 53 be
       0.21554895 0.25979075 -0.34965706 -0.20697507
0001f0 04 d0 65 3e b4 76 55 3e eb 93 55 3e ee 05 57 be
       0.22442633 0.20846063 0.20857207 -0.20998356
000200 9b 45 19 be 6a 66 ad 3d 5f a2 b9 be 75 8f a5 3e
       -0.14967959 0.084667996 -0.36256692 0.32336012
000210 9d 2a ea 3d 22 74 86 be 67 16 b6 3c a5 87 01 be
       0.11433909 -0.26260477 0.02222748 -0.126494
000220 a2 cc a7 be 64 90 b6 be f3 22 d0 3d 75 c8 88 3e
       -0.3277331 -0.35657036 0.10162916 0.26715437
000230 24 e7 3d 3e 95 c6 0b 3e c1 0c 82 be b1 94 a6 3e
       0.18545204 0.13649972 -0.25400355 0.32535318
000240 2f 01 bf 3e f3 06 92 3e ca 1e 3e 3d 7a a1 71 3b
       0.3730559 0.28520927 0.04641608 0.003686993
000250 68 77 b7 3e 8a 56 9d 3e fb c3 23 3e 0a c4 d4 3d
       0.35833287 0.30730087 0.1599273 0.10388954
000260 84 96 b9 be 36 3f df bd 6e 30 61 3d 5b 69 d6 3e
       -0.36247647 -0.109007284 0.054977827 0.41877255
000270 7d 6c d8 bd 46 c1 f5 bb f4 1d cb be 46 7e a8 3e
       -0.105675675 -0.0074998466 -0.3967129 0.3290884
000280 78 ef c2 3e 62 cd 83 3e 1a ff 71 3e 48 26 80 be
       0.38073325 0.25742632 0.2363247 -0.25029206
000290 85 b9 50 3e cf ba ce 3e f3 90 0a be 65 3f 1f 3e
       0.2038327 0.403769 -0.13531856 0.15551527
0002a0 d3 4a 1e 3e 22 74 20 3e f9 a8 af be 42 50 7c 3e
       0.1545823 0.15669301 -0.34308603 0.24639991
0002b0 25 b9 41 bd 61 ca 81 be cb 72 84 3c 1f eb 4a be
       -0.04729571 -0.25349715 0.016168019 -0.19816254
0002c0 d6 57 5a be 5d 72 bf 3c 0a b2 22 be de 56 6c 3e
       -0.21322569 0.023369962 -0.15888229 0.23080012
0002d0 fc 05 6b be b6 6b a9 be 5c 6b ae 3d 54 fe 54 3e
       -0.22951502 -0.3308999 0.08516571 0.20800143
0002e0 0a 3a 44 3e a7 fa 73 3e 64 21 39 3e 3b d3 3f be
       0.19162765 0.23826085 0.18079144 -0.18732922
0002f0 65 f7 3a 3e 45 89 33 3e 6b 42 6f 3e 24 25 ec bd
       0.18258436 0.17532833 0.2336518 -0.115305215
000300 10 4d ec bd 40 b9 e2 bc 38 01 38 3e f7 8b 39 be
       -0.11538136 -0.027676225 0.17969215 -0.18119799
000310 1f d9 80 3e e0 fa 4b bd fc b5 0b be 0f f7 0a 3e
       0.2516565 -0.0497998 -0.1364364 0.13570808
000320 d6 88 2b 3d 0d fe 22 3e f4 4c a5 3e 1d a7 3d be
       0.041878544 0.15917225 0.32285273 -0.1852078
000330 d7 ba 2f 3e a7 a2 28 be f0 1d 4c 3e 74 2e c7 bd
       0.17161117 -0.16468297 0.19933295 -0.09725657
000340 14 31 40 be 69 ef a1 be b2 38 3f be 92 2a 55 3d
       -0.18768722 -0.31627968 -0.18673971 0.05204255
000350 92 0a 5e be 66 43 21 be 23 3a 17 bd d4 f9 6a 3e
       -0.2168372 -0.15748367 -0.036920678 0.22946864
000360 f3 f1 40 3e 9f 59 e1 3d 85 f7 23 be b5 a6 2d be
       0.18842296 0.11003422 -0.1601239 -0.16958125
000370 9e 5a 32 3e 36 19 1f 3e a4 eb 1f 3e ee 54 49 be
       0.1741738 0.15536961 0.15617234 -0.19661304
000380 1d b5 ba 3e 16 63 8d 3e 7f d1 2d 3e 4c e1 6d be
       0.36466303 0.2761466 0.16974448 -0.23230475
000390 72 21 84 3e 63 a3 a1 3d 96 b1 19 be 4b 4a 1f 3e
       0.25806767 0.07892492 -0.1500915 0.15555684
0003a0 52 17 63 3e 36 c5 43 3e 3f 7b a2 be 70 bf 9f 3e
       0.22176865 0.19118199 -0.31734654 0.31200743
0003b0 69 b2 01 be c3 1e 63 be 8f dd 94 bc d1 a8 80 be
       -0.12665714 -0.22179703 -0.018172054 -0.25128797
0003c0 ac 16 5f be 8c 54 73 3e 3d 87 83 be 84 37 3f 3e
       -0.21785992 0.23762721 -0.25689116 0.18673521
0003d0 f1 d7 6d be 87 28 af be a2 97 30 3e 41 62 89 3e
       -0.23226906 -0.34210607 0.17245343 0.26832774
0003e0 4d f8 4c 3e 5a dc df 3d d4 10 5d 3e 04 54 45 be
       0.20016594 0.109307006 0.2158845 -0.1927033
0003f0 3e 63 3d 3e e7 8c 11 3e 00 2d 66 3e 52 85 02 be
       0.18494889 0.14213906 0.22478104 -0.1274617

fc.bias f4 [88]
000000 0e 84 d1 be d2 16 aa be 90 69 99 be 09 2b ca 3e
       -0.40921062 -0.33220536 -0.2996335 0.39485958
000010 93 b6 2c be 0a a5 52 3e 5a b2 81 3d 18 db e2 3e
       -0.16866522 0.2057077 0.06332846 0.4430778
000020 cd 43 8b 3c 59 0c 88 bd 32 ed 9f bd 55 ed 15 3c
       0.017000103 -0.0664298 -0.07808913 0.009150823
000030 f1 0d 5b bd 42 23 94 be 99 6f 34 3c 6a a9 2f 3e
       -0.053480092 -0.2893315 0.011012935 0.1715447
000040 a8 ac ee bd 7b 70 b0 3d 0b ec 92 3e 95 c9 1d be
       -0.11654025 0.08615204 0.28695711 -0.15408929
000050 c4 ca 41 be 88 d1 54 be e6 cb bc bd 42 c5 92 3e
       -0.18925005 -0.20783055 -0.09218578 0.2866612
000060 43 cb 41 be 74 a6 6d 3e e0 e0 e1 bd 3b a1 bd 3e
       -0.18925194 0.23208028 -0.110292196 0.37037072
000070 e9 dd 0c be 3c 7a 95 bc 31 82 d0 3d 91 12 00 3e
       -0.13756527 -0.018246762 0.10181082 0.12507083
000080 35 ab ec 3d cb c5 64 be fe 6d 0b be 5e 02 9f be
       0.11556093 -0.22341077 -0.13616177 -0.31056494
000090 b4 58 28 be 7f de 46 bd 97 f1 9c be 60 54 6d be
       -0.16440088 -0.048552033 -0.30653068 -0.23176718
0000a0 f0 22 8b be a1 63 7d be 57 bb c1 bd 92 07 06 bd
       -0.27175093 -0.24745037 -0.0945956 -0.032722063
0000b0 1e a3 f1 bd 62 03 b1 be e6 2c dc bd 34 fe 82 be
       -0.1179869 -0.34572893 -0.10750751 -0.25584567
0000c0 39 6b 63 bd 40 27 85 be 2b d5 53 be f4 4c b2 be
       -0.055522177 -0.26006508 -0.20686786 -0.34824336
0000d0 5b 0c bb be f9 b4 16 be 23 8f aa be ae 4c 82 be
       -0.36532864 -0.14717473 -0.3331233 -0.25449127
0000e0 93 d9 a1 be 32 ae f8 bd b6 3a 1d be e8 b7 c1 be
       -0.31611308 -0.121426 -0.15354428 -0.37835622
0000f0 a1 33 50 be ea 83 99 be 35 14 ce bd 07 1c 59 be
       -0.20332195 -0.29983455 -0.10062448 -0.21202098
000100 7e f4 7a be 40 3b 88 be 27 bd 5f be ba 08 55 be
       -0.24507329 -0.26607704 -0.218495 -0.2080411
000110 80 47 c5 bd b7 ae a8 bd e3 80 cd be 81 fb dd bd
       -0.09632778 -0.08236449 -0.40137395 -0.10838986
000120 4e e6 8b be 15 59 79 be 9f 67 99 be ea 7d b9 bd
       -0.27324146 -0.24350388 -0.2996187 -0.09057219
000130 9e ef 8e be 17 22 ae bd 42 a7 9c be 13 ae d6 be
       -0.27917188 -0.08502596 -0.30596358 -0.41929683
000140 f6 91 a6 be fa 7c b9 be ca da 77 be 12 aa bd be
       -0.32533234 -0.36228162 -0.24204555 -0.37043816
000150 dc c1 ae bd d6 e3 2f be e3 5a 7f be a3 24 9f be
       -0.085330695 -0.17176756 -0.24937014 -0.3108264
