model_storage/ch7/model2_conditioned_surname_generation/model.pth (torch, 53315 bytes, 8 tensors)

char_emb.weight f4 [88, 32]
000000 00 00 00 00 00 00 00 00 00 00 00 00 00 00 00 00
       0.0 0.0 0.0 0.0
000010 00 00 00 00 00 00 00 00 00 00 00 00 00 00 00 00
       0.0 0.0 0.0 0.0
000020 00 00 00 00 00 00 00 00 00 00 00 00 00 00 00 00
       0.0 0.0 0.0 0.0
000030 00 00 00 00 00 00 00 00 00 00 00 00 00 00 00 00
       0.0 0.0 0.0 0.0
000040 00 00 00 00 00 00 00 00 00 00 00 00 00 00 00 00
       0.0 0.0 0.0 0.0
000050 00 00 00 00 00 00 00 00 00 00 00 00 00 00 00 00
       0.0 0.0 0.0 0.0
000060 00 00 00 00 00 00 00 00 00 00 00 00 00 00 00 00
       0.0 0.0 0.0 0.0
000070 00 00 00 00 00 00 00 00 00 00 00 00 00 00 00 00
       0.0 0.0 0.0 0.0
000080 a7 c0 29 bf 26 a7 80 be 6d 4c 81 3f 81 ed f8 3d
       -0.6630959 -0.25127524 1.0101448 0.12154675
000090 70 33 22 3e 87 27 91 3f eb b2 93 bf 78 c7 98 be
       0.15839934 1.1340188 -1.1538976 -0.29839683
0000a0 ea ed 01 bf 19 86 6c bf ee f4 0b 3f df 54 bf bf
       -0.50753653 -0.92392117 0.5467061 -1.4947776
0000b0 dd 54 9a bf c9 62 12 3f 39 ec 18 bf bb 94 31 bf
       -1.2057148 0.57181984 -0.5973545 -0.6936757
0000c0 03 a1 d2 3f f5 90 4d bf 08 fb ac 3f 4d 45 8d be
       1.6455387 -0.8029931 1.3514109 -0.27591935
0000d0 07 63 c1 bf 9a b4 06 40 52 d4 30 40 45 8e df bf
       -1.5108346 2.104773 2.762959 -1.7465292
0000e0 b5 cd b9 3f f5 50 c1 bf 22 37 52 3f 99 9a 58 be
       1.4515902 -1.5102831 0.82115376 -0.21152724
0000f0 e1 65 47 3f 27 42 c4 3f d8 0b ce 3f eb 73 ce be
       0.7788983 1.5332688 1.6097364 -0.40322813
000100 68 05 7d bf d8 a9 34 3f ca 0b f1 3c 05 02 1b be
       -0.98836374 0.7057166 0.029424567 -0.15137489
000110 a1 8e 37 bf 3c f7 08 3f 8a 91 db bd d8 01 b7 bf
       -0.7170201 0.5350225 -0.10721119 -1.4297438
000120 f9 e8 15 40 e8 b2 1f bf 3e f9 00 bd 78 1b 66 3f
       2.3423445 -0.62382364 -0.031487696 0.89885664
000130 26 ab be bf 9b 33 9c 3f fc fa 33 3e e0 38 ed 3e
       -1.489598 1.2203249 0.17576212 0.46332455
000140 12 bc 2e 40 1f b3 b1 bf 08 16 a8 3f 98 37 29 3f
       2.730229 -1.3882788 1.3131723 0.66100454
000150 77 ee f0 bf af a9 b7 bf 71 0f 63 3f 3e d5 09 bd
       -1.8822774 -1.4348658 0.88695437 -0.03365063
000160 5a bd fd 3e de 58 18 bf bb 07 31 3f 49 38 2f bf
       0.49558526 -0.595106 0.6915242 -0.6844526
000170 cf 9e a5 be 49 14 12 bf 93 e9 af bf bc a8 37 bf
       -0.32347724 -0.570622 -1.3743156 -0.71741843
000180 31 5e d5 bf 08 bd ae bf 26 7f 29 be 1e 56 76 3f
       -1.666937 -1.3651438 -0.1655241 0.96225154
000190 69 39 01 3d 43 ed 3d bf e0 77 98 be 03 9f 8c 3c
       0.03154889 -0.7419016 -0.29778957 0.017165666
0001a0 2f 7a 35 be bf a1 08 be 94 81 96 3e 2d 46 b1 3f
       -0.1772239 -0.13342951 0.29395735 1.3849541
0001b0 1c a1 f7 3d a4 ac 22 40 30 f5 23 bf 60 ac fc bf
       0.12091276 2.5417871 -0.64046 -1.9740105
0001c0 4d bd a8 be d7 65 02 3c b9 1d 6d 3f 1e 39 f1 bf
       -0.32956925 0.007958851 0.9262348 -1.8845556
0001d0 fb f7 2a 3e 8c d0 ea 3e 0e 13 e2 bf 31 03 16 3f
       0.1669616 0.45862234 -1.7662065 0.5859862
0001e0 cd 21 e0 3f d0 ba 8f 3e 90 36 9f 3e b0 5c 27 bf
       1.7510315 0.28072214 0.31096315 -0.65375805
0001f0 33 5a 28 bf ce 0b a3 3e b3 b1 0c bf a5 82 bb bf
       -0.65762633 0.31844944 -0.5495865 -1.4649245
000200 90 7a 1e c0 22 7f 15 40 9e d4 92 3f e6 d7 8f be
       -2.4762306 2.3358846 1.1471136 -0.28094405
000210 9b 2c 62 3f 61 e4 9d 3f 4e 63 a0 be 66 ea a8 bf
       0.8834931 1.2335321 -0.31325763 -1.3196533
000220 98 44 98 3d 0f 85 f1 3d 16 78 3e 3f 5e 56 24 3f
       0.07434958 0.11792957 0.74401987 0.64194286
000230 49 7b b1 3e 51 6a 6e bf b8 44 e8 3e 84 08 06 3f
       0.34664372 -0.93130976 0.45364928 0.52356744
000240 7a da 09 40 01 ab 91 3f c0 49 cb bf ff b4 cb be
       2.1539598 1.1380311 -1.5881882 -0.39786527
000250 e2 04 67 be c2 39 18 bf 6f fe 62 bf 88 45 6a 3f
       -0.22560456 -0.5946313 -0.88669485 0.91512346
000260 fa 35 8c bf 0c ab 29 3f dd 8f 65 3f 9d 18 d4 be
       -1.0953972 0.6627662 0.8967264 -0.41425028
000270 e8 69 a8 bf 5e ac 88 be 97 25 c9 3f e7 27 5c be
       -1.315732 -0.26694006 1.5714597 -0.21499597
000280 d3 ba 98 bf 7a c9 b5 3e bd 67 1a be 3c 26 0d 40
       -1.1932014 0.35505277 -0.15078636 2.2054586
000290 f7 05 49 c0 41 96 13 3e 85 3c 60 bf 9f d9 08 bf
       -3.140989 0.14412786 -0.87592345 -0.53457063
0002a0 a1 6d 80 3e 5f 5d 0c 40 f9 de 01 bf 03 fa 59 be
       0.2508364 2.193199 -0.50730854 -0.21286778
0002b0 48 8d a4 bf 88 43 9a be 5b 42 01 c0 9f 39 c8 bf
       -1.2855616 -0.30129647 -2.019675 -1.5642585
0002c0 eb 01 09 bf 1a aa 82 bf a7 ee d8 3d 67 f6 8c 3e
       -0.5351855 -1.0208161 0.10592394 0.2753174
0002d0 15 5d f0 3e 9e e1 19 3f 88 ee f4 bf 35 15 71 3f
       0.46946016 0.6010989 -1.9135294 0.94172984
0002e0 2e 04 92 3f cd 49 99 3f 29 b8 23 3f b6 37 c0 bf
       1.1407526 1.1975647 0.6395288 -1.5017002
0002f0 60 84 27 bf 0c b8 15 40 73 45 f7 3e 24 9a c0 3f
       -0.65436363 2.3393583 0.48295173 1.504704
000300 48 f7 81 3e fe 34 e5 be dc b4 f0 3f 28 b1 bf 3f
       0.25383973 -0.44766992 1.8805194 1.4975939
000310 cb e6 75 3f fe 3c e8 be 80 c9 e6 be fa 61 2a 3f
       0.9605529 -0.45359033 -0.45075607 0.6655575
000320 8f eb d7 3d a8 60 f2 bf 2d d7 a6 3f 8f 5e d2 3e
       0.10542976 -1.8935747 1.3034416 0.41087767
000330 73 1b 9f bf ec 60 87 bf 37 9e 60 be bc bd f7 3d
       -1.2430252 -1.0576453 -0.21935354 0.12096736
000340 68 94 9d 3e 3b 15 07 bf b4 61 b6 be 37 65 ff be
       0.30777287 -0.5276677 -0.35621417 -0.49881908
000350 71 19 76 3f fe 9c 69 3f 59 f5 a8 3f 70 f8 38 3f
       0.9613257 0.91255176 1.3199874 0.72254086
000360 60 91 11 3e 3a 1a 81 3f b5 08 d1 be d9 06 25 bf
       0.14215612 1.0086129 -0.40826955 -0.64463574
000370 00 d0 bc be 78 22 2b 3e fa f2 f2 be 30 86 a9 be
       -0.3687744 0.16712368 -0.47451 -0.3311019
000380 97 b5 4d bf 2b 7b 18 bc 0e 8d d6 bd 6c 83 ee be
       -0.8035521 -0.009306709 -0.10476123 -0.46584642
000390 36 e3 b4 be ee fc ee 3e 91 01 cc bd 8a e9 2f bf
       -0.35329598 0.46677345 -0.09961236 -0.6871573
0003a0 17 39 71 3f 60 2a ca bf 54 58 5e 3f f0 3f 0b c0
       0.9422774 -1.5794182 0.8685353 -2.1757774
0003b0 9a 5c 8c bf b1 5c 2d be 87 ca 13 bf 2f e7 24 bf
       -1.096576 -0.1692989 -0.5773091 -0.6441526
0003c0 2a b9 a8 3f 90 15 b1 bd 76 63 49 bf a8 cf 87 bf
       1.3181508 -0.08646691 -0.7866739 -1.0610247
0003d0 6f f1 42 3e da 63 05 bf 27 2a 27 be fa d8 9c bf
       0.19037412 -0.52105486 -0.16324674 -1.2253716
0003e0 2a 2a 0f bf 0e 84 b2 3e c9 89 8b bf 86 78 ac bf
       -0.5592371 0.34866375 -1.0901424 -1.3474281
0003f0 bc 76 93 3f 84 60 dd bf 5c 60 06 bf 6a e1 ad 3f
       1.152061 -1.7295079 -0.5249078 1.3584416

nation_emb.weight f4 [18, 32]
000000 b0 20 58 bf fe 30 41 bf 9f 26 86 be 35 6d 31 3f
       -0.8442488 -0.7546538 -0.2620134 0.6930726
000010 05 6b b4 bf 59 46 dd 3e d5 0c ab 3f 23 3a 16 bf
       -1.409516 0.43217734 1.3363291 -0.5868246
000020 20 db a3 3f 62 c5 dc 3e f9 c9 87 3f 8b a6 51 be
       1.2801247 0.4311934 1.0608512 -0.20473687
000030 f2 c6 da 3d 6a 44 3c bf 10 fa d9 bd fa 14 21 bf
       0.10682477 -0.7354189 -0.10643399 -0.6292263
000040 ce 94 d4 3f 95 db 19 40 ab aa f2 3f 54 01 3a be
       1.6607912 2.4040272 1.8958334 -0.18164569
000050 97 d8 e3 3e 92 1a 2b 3f a0 95 fe bf 3c 98 78 bf
       0.44501182 0.6683742 -1.9889412 -0.9710729
000060 c1 54 15 40 04 a9 4e 40 1b 5a 50 bf 07 b8 99 bf
       2.333298 3.229066 -0.8138749 -1.2009286
000070 da 3e 2a c0 0e fb 68 3f ae 17 d5 bd d5 26 0f 3f
       -2.6600862 0.9100808 -0.10404907 0.5591863
000080 53 1e 51 bf bb 12 0b 40 4b ab a9 bf db 24 84 3e
       -0.81686896 2.1730182 -1.32554 0.25809368
000090 cc 91 31 3f 32 f4 b7 3f 9c 4a 70 bf 15 3b 2f 40
       0.69363093 1.4371397 -0.93863845 2.737981
0000a0 33 cc 12 bf 41 91 3f bf 52 97 94 bf f1 5a 77 bf
       -0.57342833 -0.74831015 -1.1608679 -0.9662314
0000b0 67 72 92 3f 4b 51 df 3f 98 38 c4 be 7e e7 91 3c
       1.1441163 1.7446684 -0.38324428 0.01781058
0000c0 b0 5b 92 3f 07 97 e4 3f 2d 66 19 bf ff f5 86 bd
       1.1434231 1.785859 -0.5992153 -0.06589889
0000d0 0a d9 0d 3f 57 33 08 3f 9a 0c 9f 3f 24 22 97 bf
       0.554093 0.5320334 1.2425721 -1.1807294
0000e0 91 7c 1a 40 12 57 8b 3d a4 5c ce 3f b9 9b a1 3e
       2.413853 0.06803717 1.6122022 0.3156412
0000f0 53 5c f1 bf 8e a6 72 bf c2 a5 08 40 0a 2d 31 3f
       -1.88563 -0.9478539 2.135117 0.6920935
000100 04 07 64 bf 74 92 b9 3f ba b5 ce bf 65 cf 03 c0
       -0.89073205 1.4497819 -1.6149209 -2.0595334
000110 ab 77 27 bf 79 9f 60 3f 52 ea 16 40 83 11 04 3f
       -0.65416974 0.87743336 2.3580518 0.5158922
000120 4a 45 b7 bf 30 e3 bb be e9 24 d7 3f 85 6a c9 3f
       -1.431802 -0.36696768 1.6808139 1.5735632
000130 fc c8 4f be 3d 48 d1 3e 35 9a 8d be b2 af 33 bf
       -0.20291513 0.40875426 -0.27656713 -0.70189965
000140 96 c3 bf 3f d9 05 29 3f ec 71 90 3f 39 75 9b 3f
       1.4981563 0.6602455 1.1284766 1.2145149
000150 64 a2 e5 bf e0 14 cc bf c1 91 3f bf 29 f5 0a be
       -1.7940183 -1.594387 -0.7483178 -0.13570084
000160 d5 e3 8a 3f 60 a9 64 bf d8 55 b2 bf 3b 9a 8e 3f
       1.0850779 -0.89320946 -1.3932447 1.1140817
000170 13 43 d0 bd aa 34 5e 3f 35 c7 e4 3f f9 73 a9 3d
       -0.101690434 0.8679911 1.7873293 0.08274073
000180 7e 44 e1 bf c8 af 2f be 79 8a a0 3d 67 8a e1 3f
       -1.7599027 -0.17156899 0.078389116 1.7620362
000190 d1 1c fd 3d ad ca 3b bd dd 13 d3 3e 30 ea 5f 3f
       0.12359012 -0.045847584 0.41226092 0.87466717
0001a0 5d fe 44 be 57 0a 6f bf b3 ca 0b 40 17 56 da 3f
       -0.19237657 -0.9337515 2.1842468 1.7057523
0001b0 6b c0 b7 3f 78 d7 5a 3f b2 e7 bd 3e 03 b5 c0 be
       1.4355596 0.8548503 0.37090832 -0.376381
0001c0 7c 86 11 bf 0c 34 00 bf 84 98 b2 be f0 23 4e bf
       -0.5684583 -0.5007942 -0.34881985 -0.80523586
0001d0 20 32 68 be ca 14 ca bf d1 82 0b c0 ac 61 2d 3f
       -0.22675371 -1.5787594 -2.1798594 0.6772716
0001e0 83 06 3c bf 86 14 e3 bc 5f f1 57 bf 67 3a ca 3e
       -0.73447436 -0.027719747 -0.8435268 0.39497682
0001f0 62 4d 42 40 2d 33 09 bf 16 12 a0 3e f4 51 ba 3f
       3.035973 -0.53593713 0.31263798 1.455626
000200 36 28 54 3f 3c 23 8e 3f df 66 72 3f ab df 21 3f
       0.8287386 1.1104503 0.9468822 0.63231915
000210 e0 b7 98 3f b7 61 16 3f 56 e9 ad be bb 78 12 c0
       1.1931114 0.5874285 -0.33967084 -2.2886188
000220 62 7c d7 3f 21 db a0 bf e9 38 8a 3f b1 e0 0d 40
       1.6834834 -1.2566873 1.0798618 2.216839
000230 72 ab af 3e fc 52 17 be 7f 7a 91 3f 11 43 92 3e
       0.3431049 -0.1477775 1.1365508 0.28566793
000240 ce 54 88 3e 62 4a 20 40 14 8d b1 3f 07 ad 8d 3f
       0.266272 2.50454 1.3871179 1.1068429
000250 57 f7 f5 bd d3 2c 3e 3f a4 38 68 be 52 76 a1 3f
       -0.12010067 0.74287146 -0.22677857 1.2614233
000260 7f f0 22 bf d7 1c 93 3f b9 d2 5f be 03 00 6a bf
       -0.6364822 1.1493176 -0.21857728 -0.9140627
000270 98 4d 89 3f cb 11 5a 3f bc 24 27 3f 8e 0a c6 3e
       1.0726805 0.851834 0.6529043 0.38679928
000280 9a e7 d2 3f 2d 03 18 3f b5 78 90 be 80 2a 55 bf
       1.6476929 0.59379846 -0.28217092 -0.83267975
000290 33 07 ea 3f a6 7c 3a bf 5b b7 0d bf 13 9f 36 c0
       1.8283447 -0.7284645 -0.55357903 -2.8534591
0002a0 7a bf 04 bf 53 1d d9 3d 34 b5 c4 3e a3 41 aa bc
       -0.5185467 0.10601296 0.38419497 -0.020783251
0002b0 52 b6 9c bf 28 22 27 3f a3 ca ad 3f 15 6b 5d 3e
       -1.224314 0.65286493 1.3577465 0.2162288
0002c0 d9 78 45 c0 32 3c 01 40 f0 01 b2 be bf 51 d2 be
       -3.085501 2.019299 -0.34767103 -0.41077992
0002d0 17 70 19 be 52 ef 81 bf f0 2b 0e be d4 fb 99 bf
       -0.14984165 -1.015116 -0.13883948 -1.2029977
0002e0 ec d1 89 be 4b b4 dd 3e cd dd f4 be df 0f 25 3e
       -0.2691797 0.43301615 -0.4782547 0.16119336
0002f0 bd 57 ad bf 8e 78 3b bf 81 77 a9 bf 43 1a 9c 3f
       -1.3542401 -0.73230827 -1.3239595 1.2195514
000300 c3 83 39 3f 27 7d 82 bf 52 d8 c4 bf 27 b2 c0 bf
       0.7246668 -1.0194443 -1.5378516 -1.5054368
000310 1f 8b 87 3d b9 8d ce 3d a6 63 86 bf f6 f7 e1 bd
       0.06618332 0.10085625 -1.049916 -0.11033623
000320 bc 45 e3 be 96 1a dd 3f 05 03 2b 3f 61 8f 3e c0
       -0.4438914 1.7273738 0.6680148 -2.9775012
000330 6d 9b 0c 3f 16 30 ac 3f bb 4a 4b be 68 a1 0c c0
       0.5492466 1.3452175 -0.19852726 -2.1973515
000340 df b7 96 3e d6 72 17 be d9 3a ec 3e 2b dd a8 be
       0.29437158 -0.147899 0.46138647 -0.32981238
000350 ef 6e a0 3f fe ab 50 3f a9 f0 7b bf 70 92 24 3f
       1.2533854 0.8151244 -0.98414093 0.64285946
000360 19 f8 7e bf 6b 79 18 be 50 96 30 bf 3c 7f 40 bf
       -0.99597317 -0.14890067 -0.6897936 -0.75194144
000370 57 4f a7 3f 40 8d df 3f cb 04 19 3f f2 f7 80 3f
       1.3071088 1.7464981 0.5977294 1.0075667
000380 d5 ed c7 3f 64 4a 4d bf 9c 3f bf bf 2f 8d f8 3d
       1.5619456 -0.80191636 -1.4941287 0.12136304
000390 13 c4 0f bf 63 e4 1d 3f 1a 1b 56 3f 74 de 30 40
       -0.5615856 0.61676615 0.83635104 2.7635775
0003a0 20 43 c8 bf 02 7b a7 3f c7 7f 86 bf 12 d9 9a bf
       -1.5645485 1.3084414 -1.0507745 -1.2097495
0003b0 bb 16 3b bf 1a c5 a1 bf 74 01 4f 3f dc bf a1 3f
       -0.7308156 -1.2638276 0.8086159 1.2636676
0003c0 2f 8d 84 3d 93 94 34 bf 53 d6 89 bf d1 ad 3e bf
       0.06472241 -0.70539206 -1.0768532 -0.7448397
0003d0 d0 21 7c be a1 9d 03 3f 6d 11 d1 3f f0 f7 04 40
       -0.24622273 0.514124 1.6333443 2.077633
0003e0 50 c7 4d 3f 3e b3 36 3e 2f cf 82 bf 7b 89 ab 3f
       0.8038225 0.17841813 -1.0219477 1.3401331
0003f0 11 dc 86 3f 6b 1b 81 3f 1e 61 3e 3f 6d 95 ae 3d
       1.0535909 1.0086492 0.7436694 0.085245945

rnn.weight_ih_l0 f4 [96, 32]
000000 ae ed a8 bd 83 8f db bd 7f b7 9e 3d 60 ea ae 3e
       -0.08248459 -0.10720732 0.07749843 0.3416319
000010 e6 9e 25 3e ab e6 4c bd 12 98 77 be ac cd 01 3d
       0.16173896 -0.05002467 -0.24179104 0.031690285
000020 ee 9f a5 3d e8 95 40 be 26 56 b7 3d 32 c7 e1 bc
       0.08087145 -0.18807185 0.089519784 -0.027560804
000030 36 9c 3d be 66 80 05 bf 40 98 81 bd 2f 85 11 be
       -0.18516621 -0.52149045 -0.063278675 -0.14210962
000040 42 4e 14 be aa 63 09 3e ef 1c 34 be 66 39 36 bd
       -0.14482978 0.13416925 -0.17589162 -0.044488333
000050 f4 eb d4 bc 15 90 13 3e fd e3 40 be 63 e3 4b be
       -0.025991417 0.14410432 -0.1883697 -0.1991096
000060 f1 10 a1 3d 80 66 2c bd 58 44 09 be 8a b9 27 be
       0.078645594 -0.04208994 -0.13404977 -0.16379371
000070 b3 6b 7f be ea 83 08 3e 35 bd 36 3e ce 68 8e 3d
       -0.24943428 0.13331571 0.17845614 0.06953584
000080 63 0f e0 ba 6f 12 89 3e 92 e0 2a 3e d7 61 2e 3e
       -0.0017094429 0.26771876 0.1668723 0.1702951
000090 c6 e7 bc 3c f3 8c 89 3d 17 21 00 bc 6f d9 88 3e
       0.023059737 0.06716337 -0.007820389 0.2672839
0000a0 1e 99 d1 bd 29 af fb bd e8 6d 97 3c f8 8c f5 bb
       -0.10234283 -0.122892685 0.018485025 -0.0074936114
0000b0 38 8d dc 3d 6b 8a 0d be 1b 18 9a bd 5c a5 aa be
       0.10769123 -0.13822334 -0.07524129 -0.33329284
0000c0 6b 7d 5f be cb 05 22 be db f6 30 bd bd a1 d1 bd
       -0.21825187 -0.15822522 -0.04320417 -0.10235927
0000d0 8f 1d 85 bc d9 6d 51 3e cd ad 29 3d a3 f9 01 3d
       -0.016249446 0.2045206 0.041425515 0.031732213
0000e0 e0 9f 0e 3e 79 8d 8c bd 3d 59 b7 be f8 9f 8b be
       0.13928175 -0.06862921 -0.3581027 -0.27270484
0000f0 56 3e a8 be 0d e0 1c 3d 54 50 5d 3e f6 a6 95 3e
       -0.3286006 0.03829961 0.21612674 0.29228944
000100 3f 23 e2 3b f1 a9 0b be 10 0c d9 3d 0f ea 9e 3e
       0.0069011743 -0.13639046 0.10598004 0.31037948
000110 4c 9f 54 3e 1f 10 fe 3d f0 1f b7 be 16 f3 d2 3c
       0.20763892 0.124054186 -0.35766554 0.025750678
000120 ab 40 cc bd e1 46 aa 3d 7d a8 6e 3e 1d d5 3a 3e
       -0.09973272 0.083143 0.2330646 0.18245359
000130 86 28 5f 3d d3 59 d8 bd b4 2d 36 3e 57 1e c8 bd
       0.054482006 -0.105640076 0.17790872 -0.09771412
000140 d2 3f 73 3d 49 50 ba 3c 89 14 f9 3c fa 0b 07 3e
       0.059387036 0.022743361 0.0304053 0.13188162
000150 7a ad 34 3e 9e 96 ad 3e 95 0c 2d bd 59 31 ca 3e
       0.17644301 0.33903974 -0.042248327 0.39490774
000160 61 25 cf 3d 59 0a 0f 3d 6f ed 92 3e 93 4c 3c be
       0.10114551 0.034921978 0.28696772 -0.18388586
000170 94 78 a1 be 7e 1d 25 3e f8 7c a1 3e a5 2c 13 3e
       -0.31537306 0.16124532 0.31540656 0.143725
000180 c7 3c 59 3e db 51 61 3d fd e0 27 3d cc b4 46 3c
       0.21214591 0.055009704 0.04098605 0.012128066
000190 cb bf 98 3e 45 8e 66 3d 4a 4b 3e 3d 90 f8 1b 3e
       0.29833826 0.056288023 0.04645852 0.15231538
0001a0 15 45 0d bc ac c6 d0 bd 42 cc bb bd 4e b6 42 bd
       -0.0086224275 -0.10194144 -0.091698185 -0.04753714
0001b0 d5 45 a0 bd 38 63 02 3b a3 06 00 be 11 0a 51 be
       -0.078258194 0.0019895565 -0.12502532 -0.20413996
0001c0 a0 14 27 be 0b 1c 98 3e c9 87 1d 3a 3a a6 90 be
       -0.16316462 0.29708895 0.0006009308 -0.2825182
0001d0 2f 10 44 3e bf 71 4b bd a9 04 a7 bd ae f0 91 3d
       0.19146799 -0.049669024 -0.08155186 0.07125984
0001e0 73 13 19 3d 9e ac 12 bc f8 99 9a 3d ec 22 65 be
       0.037372064 -0.008952288 0.075488985 -0.22376603
0001f0 61 31 42 be 91 43 61 bd fd 09 48 3c 6b 89 72 bc
       -0.18964149 -0.054996077 0.012209413 -0.014803271
000200 ec 19 a4 be 30 a3 a6 bd 66 df 94 3c 9e 26 3f bd
       -0.32051027 -0.08136594 0.01817293 -0.046667688
000210 d5 4f c4 bc ec eb 50 3d 55 d3 3e 3e 9f 18 11 be
       -0.023963848 0.051006243 0.18635304 -0.14169548
000220 21 0b ce 3e fb 93 d1 bd 93 ab e6 bd e6 dc aa be
       0.40242866 -0.10233303 -0.11263194 -0.33371657
000230 ba 21 83 be f9 34 87 3c 54 20 3d 3e 4e 01 3f be
       -0.2561167 0.016504752 0.18469363 -0.18652841
000240 1d 28 01 3e 81 75 14 be 62 9b 99 bd 25 aa 27 3e
       0.12612958 -0.14497949 -0.0750034 0.16373499
000250 fa a9 9b be b3 b1 59 be ce c2 2d be 0d ba 7c be
       -0.3040312 -0.21259193 -0.16968843 -0.24680348
000260 e0 e9 2b 3e 19 86 ff bb 61 d8 7d be de a8 15 be
       0.16788435 -0.007797968 -0.24789573 -0.14615199
000270 1a ca 89 be ee e1 c1 bd 96 51 0d be 1c 54 70 3d
       -0.26912004 -0.09466921 -0.13800654 0.058673963
000280 b0 70 a7 3c 45 1d d7 3d f7 06 2e 3e 28 64 10 3e
       0.020439476 0.105036296 0.16994844 0.14100707
000290 a2 85 72 3e 3a 48 a5 3d ff bc 41 be 46 c6 6e 3e
       0.2368379 0.08070417 -0.18919753 0.23317823
0002a0 9b c3 71 3d 36 7e f0 bd 7d 78 4c 3e 2e f1 70 3d
       0.059024435 -0.11742823 0.19967838 0.058823757
0002b0 38 04 86 bd ed ed 6b be e7 30 42 be ff c6 82 3d
       -0.065437734 -0.2303998 -0.18963967 0.06385612
0002c0 55 19 5a be 03 aa 7a 3d 8a 7f 8d be 69 f7 de 3c
       -0.21298726 0.061197292 -0.27636367 0.027217584
0002d0 11 5f 2f 3e 9e ad 50 3e b5 23 4e 3c b2 e0 01 3e
       0.17126109 0.2037873 0.012581755 0.1268337
0002e0 14 49 aa bd d5 bd 44 3e 9b 05 ff bd 63 91 96 bc
       -0.0831472 0.1921304 -0.12452241 -0.018379873
0002f0 42 e3 28 3c e2 00 47 3d c0 a6 19 3e 1f e5 77 3e
       0.010308089 0.048584826 0.15005016 0.24208497
000300 20 4a 1f 3e 60 ea 97 3d a7 47 0b be 82 35 33 3e
       0.1555562 0.0741775 -0.13601552 0.1750088
000310 4d 7c a0 3d b2 57 27 3e 64 c7 91 bd 45 79 b0 3e
       0.078362085 0.16342047 -0.07118109 0.3446752
000320 71 bd 5f bd 22 77 1f bd 54 91 b6 3d 1f 45 18 be
       -0.054624025 -0.038931973 0.08914438 -0.14870118
000330 f1 31 10 3d 09 8f 7f be 7e 47 e4 bd 5a 04 e4 3d
       0.035203878 -0.24956907 -0.111464486 0.111336425
000340 5e fd 59 be a8 d5 31 3d b9 a8 c4 bd ee 41 8a be
       -0.21288058 0.04341665 -0.09602494 -0.27003425
000350 c1 69 6b bd a1 48 16 3e a2 71 88 be 6a 14 7d bd
       -0.0574739 0.14676143 -0.26649195 -0.061787046
000360 7b e3 0c bd b1 80 28 bd ae 48 56 bd 96 cb ac bd
       -0.03439663 -0.041138355 -0.052315407 -0.084372684
000370 00 75 8c be 7f 78 00 be 3b 7b 49 3e 4a eb 0a 3e
       -0.27433014 -0.12545966 0.19675915 0.13566318
000380 b8 2d 0a be 18 56 ca 3c f5 e0 36 3e 8e 5e 24 3e
       -0.13494003 0.024699256 0.17859252 0.16051695
000390 e3 88 4f bd 56 c0 28 be cf 39 85 be 84 d1 90 3e
       -0.050667655 -0.1647962 -0.26020667 0.28284848
0003a0 79 ae 64 3d 25 cf 8e 3d 67 27 21 bd 33 45 b4 3d
       0.055830453 0.069731034 -0.039344218 0.08802261
0003b0 d8 8d 9f 3b 99 04 4b be c4 e4 ea 3c 82 f7 6f bc
       0.004869204 -0.19825973 0.028673537 -0.014646413
0003c0 b3 49 16 3d 48 13 21 be 6d 6b 64 be 08 d0 11 bd
       0.03669138 -0.15730011 -0.22306605 -0.035598785
0003d0 46 c4 ed 3d 9c cf 38 3d 61 a0 cb 3d 26 9a 39 bc
       0.11609702 0.045119867 0.09942699 -0.011328256
0003e0 13 9a 2f 3e 68 dc 09 bd 52 58 0a be fe 07 b1 bd
       0.17148618 -0.03365746 -0.13510254 -0.086441025
0003f0 a2 3f a1 be 7e 9b 33 be ad 77 b3 3d 9d e1 83 3d
       -0.3149386 -0.17539784 0.08763061 0.06439517

rnn.weight_hh_l0 f4 [96, 32]
000000 1c d8 d6 3c 86 7a 57 bd c0 44 aa 3e 4b 38 dd be
       0.026226096 -0.05260708 0.33255577 -0.4320701
000010 6a 0a f5 3e 94 38 8c 3d 75 f3 3b be 89 cd 3b 3e
       0.47859508 0.06846729 -0.1835459 0.18340124
000020 37 e5 d4 3d 19 b3 ee 3e e0 ca ac 3e 71 25 85 3e
       0.10395282 0.46621016 0.3374853 0.26005128
000030 92 38 d6 3d d2 c9 83 be a8 f8 09 bd 68 7d f8 be
       0.10460009 -0.25739914 -0.033684403 -0.48533177
000040 9a 09 6b bd 9a 88 bd bd 90 74 36 be aa 52 26 3e
       -0.057382204 -0.0925457 -0.17817903 0.16242471
000050 05 05 ea bd 67 d8 3b 3e bf da f0 3a 5f cf 2f 3e
       -0.11426739 0.1834427 0.0018375738 0.1716895
000060 67 59 77 3d e0 03 9c bc 33 63 45 3d 1d f0 92 3e
       0.060387995 -0.019044816 0.048190307 0.28698817
000070 49 4e 60 3e e5 4e b3 3c d1 58 52 3e eb e5 c7 bd
       0.21904863 0.021888206 0.20541693 -0.0976065
000080 4e ec be bd c0 61 bd 3d b6 63 4b 3e 05 6a 0c 3c
       -0.09322415 0.0924716 0.19862255 0.008570199
000090 34 30 4a 3e dd f2 ee bd b4 85 84 be 35 1c 5a 3e
       0.1974495 -0.11667416 -0.25883257 0.21299823
0000a0 07 69 87 3e 41 24 b6 3d a3 e9 17 3c 0a 30 f6 bd
       0.26447317 0.08893634 0.009272012 -0.120208815
0000b0 dd e0 4c 3e c0 e7 c0 be 9b 8c a7 3d 45 13 5f be
       0.20007654 -0.3767681 0.08181115 -0.21784694
0000c0 99 11 d4 3d 99 af ca bc 99 71 16 be 96 36 9f 3c
       0.10354919 -0.024741935 -0.14691772 0.019435208
0000d0 74 ba 89 3d 30 d9 ee 3d c1 d5 00 be 13 71 a2 3d
       0.06725016 0.11662519 -0.1258154 0.079317234
0000e0 1f 59 b4 bd f3 ee af 3e a8 67 a6 3c 0a 57 f8 3d
       -0.08806061 0.3436199 0.020313099 0.121259764
0000f0 84 ac 63 be bc 51 2c be 0c a0 6d 3e 44 b7 8b 3d
       -0.22233778 -0.16828054 0.23205584 0.068220645
000100 2d dd 7f be 59 dd b7 3e b7 95 04 3d be 43 07 be
       -0.24986716 0.35911062 0.03236934 -0.13209435
000110 e2 71 8b bc 52 36 f5 bc af de 37 be a3 fe 14 3c
       -0.017022077 -0.029933129 -0.17956041 0.009093913
000120 c3 e7 aa 3e 59 50 ae be 19 57 cd 3d d9 a6 3f 3e
       0.33379945 -0.34045675 0.10026378 0.18715991
000130 31 60 6d 3d 98 e9 04 3d cf 84 7b bd 8a 15 83 bd
       0.057953063 0.032449335 -0.061405953 -0.064005926
000140 6d 0c 1e bf be 70 27 3e 25 c8 16 be 22 2c c2 3e
       -0.6173771 0.16351601 -0.14724787 0.37924296
000150 01 89 52 3e 13 98 ab bb 3f 16 aa 3d b1 4f 85 3d
       0.20560075 -0.0052366345 0.08305024 0.065093406
000160 41 af 86 be 6f af 5c be 64 c9 92 be 59 96 33 3f
       -0.26305583 -0.21551298 -0.28669274 0.7015129
000170 84 1b 65 be 54 92 33 bd 23 59 99 3e 7c 02 8e 3d
       -0.22373778 -0.04384072 0.29950818 0.069340676
000180 f4 0e dd bd de 95 8a 3d ff 96 77 3d b4 87 3b be
       -0.10793868 0.06766866 0.060446735 -0.18313485
000190 00 2e 88 3e ba ba 53 be b7 c1 2c bc d6 2c 94 3c
       0.26597595 -0.206767 -0.010544232 0.018087786
0001a0 35 4a 90 3e 14 f1 0b 3f b3 e3 98 3e 8d a4 48 3e
       0.28181615 0.5466473 0.2986122 0.19594021
0001b0 45 06 51 3e 42 02 1d bd f9 22 5d bd 5f a5 f8 be
       0.20412548 -0.03833223 -0.05398843 -0.48563668
0001c0 07 a2 71 3e df ce 10 be c1 99 54 bd 10 26 f6 3e
       0.23596965 -0.14141415 -0.051904444 0.48075914
0001d0 14 96 82 bc 65 be 31 3e 48 78 46 3e 0f 18 a8 3e
       -0.015940703 0.17357786 0.19381821 0.32830855
0001e0 1b f3 88 3d dc 31 84 3e f9 a9 8d 3d 01 14 a3 3e
       0.06686994 0.2581929 0.06917185 0.318512
0001f0 14 cd d9 3e 6d 22 e3 3c a2 85 58 3e 90 86 84 be
       0.42539275 0.027726376 0.21144727 -0.25883913
000200 a2 9c fb bd a7 34 9e bd de ee dc 3d 14 32 37 3c
       -0.12285735 -0.077248864 0.10787748 0.011181373
000210 ad 54 a1 bc 78 7e 9d bc e8 1c 62 3b 85 8f a9 bd
       -0.019693697 -0.019225344 0.0034502093 -0.08279327
000220 56 87 06 bd 81 74 27 3e b7 d6 5a bd 58 67 9f 3e
       -0.03284391 0.16353036 -0.053427424 0.31133533
000230 e3 a2 9e bd 82 40 4d be 54 ab 3b bd 10 5b 32 3f
       -0.07745912 -0.20044139 -0.045817688 0.696702
000240 5d 92 65 3e ff ff 80 3e 68 0e 5e be c2 ef c5 bd
       0.22419114 0.2519531 -0.21685183 -0.09664871
000250 c0 2a b4 bd 8b 0f ef be 3e 1b 1c bb 1b 3b e8 bd
       -0.087972164 -0.46691546 -0.0023819949 -0.113393985
000260 24 26 d5 bd 21 43 83 3e cd ad 80 3d 5c 95 8d be
       -0.10407665 0.25637153 0.0628315 -0.27653015
000270 9c ec 14 3f 07 24 ac bb b1 1a 53 bd 07 6a 75 3e
       0.5817354 -0.005253318 -0.051539127 0.23966227
000280 35 e5 c8 bd 00 95 22 3d 63 b6 36 bb 56 04 93 be
       -0.09809343 0.03969288 -0.0027879707 -0.28714246
000290 8a 32 5c 3e e5 3d 01 be 82 19 51 be 7a 30 05 3e
       0.21503654 -0.12621267 -0.20419887 0.13006774
0002a0 be d5 d8 3e 89 23 89 bb bd c3 50 3e 50 c9 51 bd
       0.42350572 -0.0041851443 0.20387168 -0.051217377
0002b0 61 60 df 3d 1f 62 49 be f7 d3 a0 be a2 44 37 be
       0.10907055 -0.19666336 -0.31411716 -0.17897275
0002c0 41 b3 41 3d de 6f 0c 3d ce 2f e7 be b8 15 5c 3e
       0.04729009 0.034286372 -0.4515366 0.2149266
0002d0 b2 f5 da 3a d7 21 0e 3e f4 9b 74 bd 2f 41 a3 3e
       0.0016705303 0.13880096 -0.05971904 0.3188567
0002e0 9b 69 03 3d 26 5d 30 3e 47 ea ab be 74 b1 b2 3e
       0.032083135 0.17223033 -0.33577177 0.3490101
0002f0 b2 09 b9 3d 57 fc 89 bd a9 fd 59 3e 35 fe 80 3c
       0.09035052 -0.06737583 0.2128817 0.015746215
000300 42 1a cf bc 88 2c 27 3e 64 cc e9 3d ab 44 03 be
       -0.025281075 0.16325581 0.114159375 -0.12819164
000310 6b c5 01 3e 29 d8 5b be 24 bb dc bd 79 fd ec 3c
       0.12672965 -0.21469177 -0.10777882 0.028929459
000320 93 24 6b 3e 9a 49 80 3e 0e 7a 42 3b 82 06 2c 3e
       0.2296317 0.25056154 0.00296748 0.16799358
000330 c8 8e 2a 3d 38 02 1a be a0 03 8f be 29 d6 9e be
       0.041640073 -0.15039909 -0.27932453 -0.31022766
000340 48 bb 40 3e f7 a8 bb bd 2e b5 95 be 9a e8 57 3e
       0.18821442 -0.09163087 -0.29239792 0.21084824
000350 4a c2 2e 3e a9 d0 82 3d 95 ee 11 be 17 ed 6a 3e
       0.17066303 0.06387455 -0.14251168 0.22942005
000360 7a 0a ed 3d 8f 98 1a 3e 1a 7d 47 bd b0 fd 6c 3d
       0.11574264 0.15097259 -0.04870329 0.057859123
000370 61 20 be 3d eb c4 43 be 30 62 f7 3d 10 3a 89 bd
       0.092835195 -0.19118087 0.12079275 -0.06700528
000380 8f 58 1b 3e 90 a4 6f bb 6a 7c 28 3e 65 75 85 be
       0.15170501 -0.0036566593 0.1645371 -0.26066127
000390 5c 46 15 bc b8 ce 0c 3d d6 81 d4 3d c9 1b d5 bd
       -0.009111013 0.03437683 0.10376327 -0.1040569
0003a0 75 2a 36 3e fc 68 f3 3d 55 b2 b6 3e 88 82 d4 39
       0.17789634 0.118852586 0.35682932 0.00040533044
0003b0 ee 9d 1a bd 39 fc 7b be 36 f3 0b 3d 3c 05 06 be
       -0.03774827 -0.24607934 0.03416749 -0.13087934
0003c0 2e 6f 78 be a8 be 3c be ee 48 49 3e 52 22 4c 3e
       -0.24261162 -0.18432105 0.19656727 0.19934967
0003d0 75 bd 87 3e 01 63 b7 3e c7 4e be bd 63 a3 b9 3e
       0.26511732 0.3581772 -0.09292369 0.36257467
0003e0 80 a1 39 3e 87 7b 54 3e ce b4 04 be cb de 39 3d
       0.18128014 0.20750247 -0.12959597 0.045378488
0003f0 cd a8 42 be 13 4f 3c 3e 74 ba 3c 3e 0f 88 15 be
       -0.19009705 0.1838954 0.18430501 -0.14602683

rnn.bias_ih_l0 f4 [96]
000000 8d d9 93 3d 43 02 18 3e bd 73 36 3e 52 c7 59 3e
       0.07219229 0.14844613 0.17817588 0.21267441
000010 cd 02 40 3e 64 9b 5b 3e 0e 70 6c 3e f9 9e 96 3e
       0.18751068 0.21445996 0.2308962 0.29418162
000020 de 5a 29 3e 89 8e ac 3d 2d 27 84 3e 3b ab a0 3c
       0.1653857 0.08425624 0.2581114 0.019612899
000030 a5 c1 f5 bc aa 98 7f 3c 50 b2 9b bd b9 59 5c 3d
       -0.029999563 0.015600363 -0.0760237 0.053796504
000040 0b 30 f8 3d 3a a8 15 3e 16 9a 0e 3e 8b 69 ad 3e
       0.121185385 0.14614955 0.13925967 0.33869585
000050 3c 86 10 3e b2 3b bd 3d d4 43 12 bd d9 75 c7 3d
       0.14113706 0.092399016 -0.035709217 0.097392745
000060 8e 11 a7 3d 26 ee 65 bd a2 ce 4b 3e 6d 10 14 be
       0.08157645 -0.05613532 0.19903043 -0.14459391
000070 3e ee 14 3e 70 b7 28 3d f0 5b 49 3e fe e8 af 3e
       0.14544007 0.041190565 0.19663978 0.34357446
000080 a5 16 c5 be 25 86 60 be 35 31 0b be e1 e4 dc bd
       -0.3849384 -0.21926172 -0.1359299 -0.10785843
000090 9e 27 9f be dc 25 73 be c4 5b 2b be 5a ce a7 3d
       -0.31084913 -0.23744911 -0.16734225 0.08193655
0000a0 89 bf 4d be 90 7b 9a bd 78 19 47 be 71 0f 1d be
       -0.20092596 -0.07543099 -0.1944331 -0.15337922
0000b0 0d 71 7d be 7b be 27 be 50 d6 33 be d7 55 b2 3e
       -0.24750157 -0.16381256 -0.17562222 0.34831116
0000c0 fa 1a 03 bd 38 4d 76 be 92 e5 33 be 47 46 89 3e
       -0.03200815 -0.24052894 -0.17568043 0.2681143
0000d0 af 06 43 be 4a ea 89 be 90 04 6a 3e f5 24 b4 be
       -0.19045518 -0.2693656 0.22853303 -0.35184446
0000e0 57 24 90 bd af fb 07 3e 4d e2 8d be 22 55 ba 3d
       -0.07038181 0.13279603 -0.27711716 0.09098269
0000f0 dc 90 ea 3d f6 50 85 be fc bf 15 3c ac 02 6c be
       0.11453411 -0.2603833 0.009140011 -0.23047894
000100 0c 4e 3d 3e 99 51 a8 3d a4 2f 0c 3e 8a 10 bb bd
       0.18486804 0.082186885 0.13690048 -0.09134014
000110 90 8b 83 be 64 a3 09 be c8 af 22 be 03 09 57 ba
       -0.25692415 -0.13441235 -0.15887368 -0.0008202942
000120 9d 23 de 3d 55 8f d0 bd eb 70 60 3e 8f d2 21 be
       0.108466364 -0.101835884 0.21918075 -0.15802978
000130 e1 34 07 3d 0c 54 a6 bd 31 2e bf 3b 19 dd 29 bd
       0.033009414 -0.081214994 0.005834364 -0.04147062
000140 5e bf 00 3e 83 90 35 bd b9 4b 3c be 6b b5 a0 3d
       0.12573001 -0.04432727 -0.18388261 0.07847103
000150 23 b2 2b 3d cc 14 e7 bc 6d 30 29 be a7 34 5c 3d
       0.04191793 -0.028208159 -0.16522379 0.05376115
000160 d8 33 ca bd bf 34 fb 3c 58 81 a2 bc 61 a1 dc 3d
       -0.0987317 0.0306648 -0.019837067 0.10772968
000170 b6 5a 68 b9 bd 48 0b 3d ee a0 03 3e 48 db 17 be
       -0.00022159037 0.034004916 0.12854359 -0.14829743

rnn.bias_hh_l0 f4 [96]
000000 f0 05 a6 3d 43 bf bd 3d 64 65 ef 3d 56 4f 09 3e
       0.08106601 0.09264996 0.116892606 0.1340917
000010 6c 55 bb 3d 96 ab 13 3d e6 97 65 3e 47 5c 21 3e
       0.09147152 0.03605231 0.22421226 0.15757857
000020 19 ff 3d 3d 38 c7 ba 3d a3 71 57 3e 87 f1 64 3d
       0.04638586 0.09120029 0.21039443 0.0558944
000030 62 57 a1 bd 0d 26 8f 3e b8 66 b9 ba 9c 82 47 bd
       -0.07877995 0.27958718 -0.0014144992 -0.048708543
000040 6b 12 b4 3c 78 25 05 3e 49 cb 6a 3e d7 f1 05 3e
       0.021981439 0.13002574 0.2292911 0.13080536
000050 51 ef 53 bd ab 53 b9 3d cf 03 ad 3d f1 e1 26 3e
       -0.0517419 0.090491615 0.08447992 0.16297127
000060 8f 4a c6 3d 64 8c d5 3c 5f 14 1d 3e a1 1b 23 3c
       0.0968219 0.02606792 0.15339802 0.009955318
000070 d6 d7 34 3e af 74 13 bd 2f 81 a8 bb 3b 2e a1 3e
       0.1766046 -0.03599995 -0.005142353 0.31480584
000080 b4 48 b3 be 71 2f fe be 39 ed 69 be 0e 2b c7 bd
       -0.35016406 -0.4964557 -0.228444 -0.09725009
000090 79 0a 0c be a9 ff 74 be 65 a1 91 bd e2 f2 cd bc
       -0.1367587 -0.23925652 -0.07110862 -0.02514023
0000a0 e6 bd 91 be af e6 59 bd 59 14 35 be 31 36 be bd
       -0.28465194 -0.053198513 -0.17683543 -0.0928768
0000b0 da 5d ce be 12 36 a8 bd 7f ec 67 bc 78 67 2d 3e
       -0.40305978 -0.08213438 -0.014155506 0.16934001
0000c0 88 36 15 bd b7 d6 73 be 44 04 39 be ee 69 ba 3d
       -0.03642896 -0.23812376 -0.18068033 0.09102236
0000d0 3e b5 e3 be fe 1f ec be 88 96 96 3d 64 1e 1d be
       -0.44474214 -0.46118158 0.0735293 -0.15343624
0000e0 e1 ce 0d bd dc 85 e7 3d f2 ff e9 bc bb a4 2a 3d
       -0.034621123 0.113048285 -0.028564427 0.041661005
0000f0 63 34 a5 3e 55 74 5a be be 3c 06 3d a5 7d 7b bd
       0.3226653 -0.2133344 0.032772772 -0.06139912
000100 4f 4b 9c 3e 74 bc a2 3e b6 99 80 be 84 e5 56 3e
       0.30526206 0.31784403 -0.25117272 0.20985991
000110 c8 92 d7 3d 53 e2 75 be 20 06 a5 be 3f 66 8f 3e
       0.10526043 -0.24012117 -0.32231236 0.28007695
000120 87 6a 4b bd e1 13 d4 3c 79 3c 70 3d db 74 18 be
       -0.04966214 0.025888385 0.05865142 -0.14888327
000130 6f 42 54 3e 0e ef 23 3d 0f a6 36 3e 4c b5 5e 3d
       0.20728467 0.040022902 0.17836784 0.054372117
000140 2b cb 13 bd c8 ea 24 be 5d d2 30 bd c6 87 f2 3d
       -0.036082428 -0.16105187 -0.043169368 0.11842303
000150 db c9 88 3e 6e a5 56 3e bb 7d 8c 3d 61 60 69 3e
       0.26716504 0.20961544 0.06859919 0.22790672
000160 09 6d 02 3d 7d fd be 3d 0c 90 56 3d e3 39 08 3d
       0.031842265 0.09325693 0.052383468 0.03325833
000170 4c f7 a6 bd 20 f2 1a bc db b6 70 3e 9e 33 95 be
       -0.08152637 -0.009457141 0.23507254 -0.29140943

fc.weight f4 [88, 32]
000000 f0 2c a3 be c5 e5 8e be 16 a4 8c be 1f 17 86 bd
       -0.31870222 -0.27909675 -0.27468938 -0.06547379
000010 ed fe 4d be fc 15 71 3e 9f 0a 6d 3e fa 3a a8 be
       -0.20116778 0.23543543 0.23148583 -0.32857496
000020 f6 f7 92 be 0c f1 08 3c 79 e0 e0 be 3a c4 66 3e
       -0.28704804 0.008358251 -0.4392126 0.22535792
000030 80 84 11 be 36 7a d0 3e 6e 99 40 3e 3a 7b 64 3e
       -0.14210701 0.4071824 0.18808529 0.22312632
000040 56 4b 9f bd a2 b8 52 3e 89 69 a4 3c b2 8c 79 be
       -0.07778041 0.20578244 0.020069854 -0.24370077
000050 7a 57 66 be ff 7d 27 be bc d6 04 3f b3 a4 f3 be
       -0.22494307 -0.16356657 0.5189016 -0.47586593
000060 c3 cd 1a be ae ab 28 bf b7 94 ad 3e 9d f2 9d be
       -0.15117554 -0.6588696 0.33902523 -0.30849162
000070 dc 9b 41 3e 2c 0a d6 3e ed 0e d8 be 21 83 73 3e
       0.18907112 0.41804636 -0.42198887 0.2378049
000080 8c 5a 97 be 06 41 0c be d4 f2 2a be ab 79 1b be
       -0.2956127 -0.1369668 -0.16694194 -0.15183131
000090 77 f8 c3 be f3 ac 0b 3e 84 0d 55 3e f4 87 e3 be
       -0.382755 0.13640194 0.20805937 -0.44439662
0000a0 b0 b0 f9 bd 89 bd 58 3d 8a c9 cc be ae fe 40 3e
       -0.121919036 0.05291513 -0.39997512 0.18847153
0000b0 27 0e 85 bd 3f 08 a9 3e e5 89 df 3d 78 42 2e 3e
       -0.0649684 0.33014104 0.10914973 0.17017543
0000c0 8c 63 ba 3d d2 f5 3c 3e f9 4e c2 3d 75 07 8e be
       0.09101018 0.18453148 0.09487719 -0.27740064
0000d0 5c b5 b8 be 8a fc 91 bc b0 49 d5 3e 6e 84 88 be
       -0.36075866 -0.017820615 0.41657782 -0.26663536
0000e0 03 99 db bd 2f 1b 33 bf 23 f3 6b 3e b5 fa b3 be
       -0.10722544 -0.69963354 0.23041968 -0.35152212
0000f0 d4 be 70 3d a2 69 d1 3e e6 14 ee be 8e 95 8f 3e
       0.058775738 0.40900904 -0.4650032 0.2804379
000100 58 6a a0 be 29 77 23 be c7 5b 10 be da 72 ad bd
       -0.31331134 -0.15963425 -0.1409751 -0.08469172
000110 75 3b 52 be 8d 28 ef 3d 5b a4 b1 3e c2 10 33 be
       -0.20530494 0.11677656 0.34695706 -0.17486861
000120 05 12 31 be 69 e4 56 3d 9b ce 30 be 9e 51 0b 3e
       -0.1729203 0.052463923 -0.17266314 0.13605353
000130 6c a7 89 be 16 cf cf 3e 65 89 67 3d ea d3 45 3e
       -0.26885545 0.40587682 0.056527514 0.1931912
000140 d7 0c 92 bd ca 82 44 3e b2 cb ce bb 48 a0 7c be
       -0.07131355 0.19190517 -0.0063109035 -0.24670517
000150 c9 a5 9a be f3 8c 35 be 14 9a c8 3e 2a 9d 01 bf
       -0.3020461 -0.17729549 0.39180052 -0.5063044
000160 c1 80 38 bd e0 b4 22 bf 68 36 cd 3e 46 9e 3c be
       -0.045044664 -0.63557243 0.4008057 -0.18419752
000170 e2 bc 06 3e 2d 88 85 3e af a3 b0 be 62 4c 97 3e
       0.1315799 0.26080456 -0.3449988 0.29550463
000180 93 57 86 3e 2b f7 66 3e eb f7 b3 be 36 57 99 3e
       0.2623869 0.22555225 -0.35150084 0.2994935
000190 a8 e1 99 bc 04 88 6e be 66 de 5c be 9e cc 5f 3e
       -0.01878436 -0.23294073 -0.21569213 0.21855399
0001a0 6f 53 a0 3e d8 f2 cd be 40 c8 32 3e fc ce 86 be
       0.31313655 -0.40224338 0.17459202 -0.26329792
0001b0 93 14 a5 3e 22 02 44 3f 7b 94 ec 3e 03 cc 72 be
       0.3224226 0.76565754 0.46207032 -0.23710637
0001c0 1c db 0a bf 12 a7 9e be 94 fd 95 be 25 8d 1c 3e
       -0.54240584 -0.3098684 -0.29295027 0.15288217
0001d0 0f 6b 88 3e 1b dc ba be 7d 26 32 be e7 05 3a 3e
       0.2664418 -0.36496052 -0.17397495 0.18166314
0001e0 cc 9b c3 be 37 b2 1e bf 53 85 60 be 26 b1 b4 3e
       -0.382048 -0.61990684 -0.21925859 0.35291404
0001f0 44 d4 42 be 7d ef 80 be 64 9e 54 3e 44 e8 86 be
       -0.19026285 -0.25182715 0.20763546 -0.2634908
000200 15 74 e8 be 28 33 cc be f4 f7 8f 3e 0c e2 be be
       -0.45401064 -0.3988278 0.2811886 -0.37281835
000210 80 44 d6 3d a8 53 cf 3e a0 b6 bd 3e e0 19 5c bd
       0.10462284 0.40493512 0.37053394 -0.053735614
000220 8e 45 ee 3d 94 96 89 3e 87 15 46 bd 8f 34 c3 3e
       0.1163436 0.26872694 -0.048360374 0.38126037
000230 54 28 b2 be 3f fa 4d bc fb f8 7a be d9 21 8f bc
       -0.34796393 -0.01257187 -0.24509041 -0.017472195
000240 c8 8b 4a 3d 24 64 a5 3e b9 cf 51 bd 71 6e 0b be
       0.049449712 0.32302964 -0.05122349 -0.13616349
000250 e4 7e 05 3e 8b 86 cf bd a0 bf 4f 3d 43 1f ca bb
       0.13036686 -0.10133084 0.050719857 -0.0061682775
000260 5e 12 8d 3e c8 48 f3 3d aa 7f 2a bd 97 65 b2 bd
       0.27553076 0.11879116 -0.041625656 -0.08710783
000270 a4 ec ef bb 07 79 d2 3d c1 73 7a be 51 87 a9 3e
       -0.007321911 0.102769904 -0.24458219 0.3311105
000280 11 2c 83 3e fe 4c 4e 3e 76 fd f5 be 41 8c 77 3e
       0.25619557 0.20146558 -0.48044938 0.24174596
000290 67 85 01 be a5 56 5e be 87 61 4e be ed d4 1d 3e
       -0.12648545 -0.2171274 -0.20154391 0.15413256
0002a0 e9 23 bb 3e 20 aa 7b bd 05 70 1e 3e 6a be 7e be
       0.36550835 -0.06144154 0.1547242 -0.24877325
0002b0 a4 d7 3b 3e d7 41 80 be f2 6d 68 be c8 84 97 bd
       0.18343979 -0.25050232 -0.22698191 -0.07398373
0002c0 3c 59 e3 3d 17 21 9a be 04 00 f5 be 57 85 93 3d
       0.111010045 -0.3010337 -0.47851574 0.07203167
0002d0 0e b3 56 3e f9 53 cd 3e 72 f1 1f be ea 8a 1a 3e
       0.20966741 0.4010313 -0.15619448 0.15092054
0002e0 99 16 72 3d e5 bd 31 3e 26 c2 05 be db 9e 4f 3e
       0.059103582 0.17357595 -0.13062343 0.20275442
0002f0 da 6f 0d bd dd 2e 95 bd f9 31 33 3e ed c8 80 be
       -0.034530498 -0.07284329 0.17499532 -0.25153294
000300 10 ff 5c 3e e1 6a 3f 3e bf 36 eb 3d ce 46 7c 3e
       0.21581674 0.18693115 0.11485051 0.24636385
000310 38 08 95 3c 92 cc 49 be 03 5e 3a be 4e 84 42 3e
       0.018192396 -0.19706944 -0.18199925 0.18995783
000320 6c 0f 11 3d 43 19 47 be 6c 05 16 3e 58 1e 58 be
       0.035415098 -0.1944323 0.14650506 -0.21105325
000330 64 c4 58 3d 75 4a 41 be 07 8b 43 3e 38 a2 1d be
       0.052921668 -0.1887606 0.19096003 -0.15393913
000340 c4 a4 01 3e 11 9d 88 be da 69 35 3e 84 2e ec 3d
       0.1266051 -0.26682332 0.1771616 0.1153231
000350 f5 dd 37 be 71 a4 ce be e4 bc 13 be 79 5c 10 3e
       -0.17955764 -0.40359834 -0.14427525 0.14097776
000360 be 24 bd bd 44 3b 33 3e 05 1f 63 be fd 35 d8 3d
       -0.09235524 0.17503077 -0.22179802 0.105571724
000370 f0 ec 72 3c 36 58 2e be f9 b1 23 3e 2e 42 6a be
       0.014826998 -0.17025837 0.1598586 -0.22876808
000380 6e 08 7c 3e 28 6b 52 3e 3d c4 fc be 6d db a4 3e
       0.2461259 0.2054869 -0.49368468 0.3219866
000390 91 de e2 bd 8b 6f 5b be 6d 54 49 be be 1d 44 3e
       -0.110776074 -0.21429269 -0.19661112 0.1915197
0003a0 41 84 b7 3e 91 db a1 3d 52 fe 26 3e 27 ea 72 be
       0.3584309 0.07903207 0.16307953 -0.23722135
0003b0 54 e5 90 3e 31 9a 60 be b5 c9 8d be e6 6b 45 be
       0.28299963 -0.2193382 -0.27692953 -0.19279441
0003c0 24 de 5b 3e 1c c0 96 be c5 44 f6 be 75 93 b8 3d
       0.21471459 -0.29443443 -0.48099342 0.090125
0003d0 12 d6 5b 3e 12 c5 ed 3e 87 9c 35 be 8e 89 26 3e
       0.2146838 0.46439415 -0.17735492 0.1626341
0003e0 68 5f 2d 3e 70 b9 73 3e 0c 76 4f 3d 35 ef c0 bc
       0.16930926 0.23801208 0.050649688 -0.023551563
0003f0 4e 00 22 be c0 e0 3a be 1c 3e 39 3e fe 06 81 be
       -0.15820429 -0.18249798 0.18090099 -0.25200647

fc.bias f4 [88]
000000 ee 82 e3 be d7 0c 9b be b2 7f dd be 09 db 81 3e
       -0.4443583 -0.30283234 -0.43261486 0.25362423
000010 3d 61 8d 3d fb 6c 94 3e 97 5b b5 3d 85 88 7f 3e
       0.06903312 0.28989395 0.0885536 0.24954422
000020 1d 59 45 3e 03 a4 c7 bc 79 0e 63 be fe 79 d7 3d
       0.19272275 -0.0243702 -0.2217349 0.10521315
000030 4d 99 10 be 7a 0b 87 bc ba 4d f5 3d 72 45 97 3e
       -0.1412098 -0.016484965 0.11977716 0.2954517
000040 c5 ed 94 bc 92 e9 99 3d 2d 22 9e 3e 0b 45 09 be
       -0.018179784 0.07515253 0.3088545 -0.13405244
000050 86 18 fb bd e4 68 90 3c 54 91 ce bd ce aa 8c 3e
       -0.12260537 0.01762814 -0.10086313 0.27474064
000060 9c 40 9c bd 94 b3 9e 3e fc 06 26 be 13 67 86 3e
       -0.07629511 0.30996382 -0.16213602 0.26250514
000070 5b 08 f9 bd d6 fd 89 bd ba 56 da 3d fc a3 8a 3e
       -0.12159797 -0.067378685 0.10661073 0.27078235
000080 83 b6 bb 3d bf 13 06 be 1b 45 84 be 04 4b 79 be
       0.09165671 -0.1309347 -0.25833973 -0.24345022
000090 76 08 96 be b2 53 f1 bd 9b ca 16 be 79 4b b8 be
       -0.2930333 -0.11783542 -0.14725725 -0.3599508
0000a0 42 6e 8d be ed fc 7e be 18 51 a6 bd f5 dc fd bc
       -0.27623183 -0.24901171 -0.08120936 -0.03098915
0000b0 c9 8e 6e be 60 5d 95 be c5 14 0d be 5c 83 24 be
       -0.23296656 -0.29172802 -0.13777454 -0.16065735
0000c0 5f c7 9f be ea ea a5 3c 74 3e d0 bd b1 38 b8 be
       -0.31206796 0.020253617 -0.10168162 -0.35980752
0000d0 6e 6f 85 be 67 05 6c be e9 59 9c be c5 36 41 be
       -0.26061577 -0.23048936 -0.30537346 -0.18868549
0000e0 e0 f3 c4 bd 61 8a 3e be 3d da db be d1 17 45 be
       -0.09616828 -0.18607475 -0.4293994 -0.19247366
0000f0 12 e6 d4 be e6 c2 54 be a0 46 9b be 58 69 b9 be
       -0.4158178 -0.20777473 -0.3032732 -0.36213183
000100 d0 6d 93 be 54 ac bf bd 43 19 9f be 06 9c 96 be
       -0.28794718 -0.09359041 -0.3107396 -0.2941591
000110 6c 68 4d be 5a 20 91 be bc b7 a9 be 62 f2 1a be
       -0.20059365 -0.28344995 -0.3314799 -0.15131524
000120 75 47 a8 be c6 24 8c be ce 81 d4 be f3 ee 68 be
       -0.32867017 -0.27371806 -0.41505283 -0.22747402
000130 23 5e 76 be 1e 4d a4 bd e0 73 32 be 47 6c dc be
       -0.24059348 -0.080225214 -0.17427015 -0.4305136
000140 9e 91 c6 be fd 49 18 be 0d d8 b2 be 10 a1 cc be
       -0.38782972 -0.14871974 -0.3493046 -0.3996663
000150 8a 1d 08 be ed f7 98 be ad 27 46 be 11 8a 24 be
       -0.13292518 -0.29876652 -0.19351073 -0.16068293
