model_storage/ch6/surname_classification/model.pth (torch, 99179 bytes, 9 tensors)

emb.weight f4 [80, 100]
0.0 0.0 0.0 0.0 0.0 0.0 0.0 0.0
0.0 0.0 0.0 0.0 0.0 0.0 0.0 0.0
0.0 0.0 0.0 0.0 0.0 0.0 0.0 0.0
0.0 0.0 0.0 0.0 0.0 0.0 0.0 0.0
0.0 0.0 0.0 0.0 0.0 0.0 0.0 0.0
0.0 0.0 0.0 0.0 0.0 0.0 0.0 0.0
0.0 0.0 0.0 0.0 0.0 0.0 0.0 0.0
0.0 0.0 0.0 0.0 0.0 0.0 0.0 0.0
0.0 0.0 0.0 0.0 0.0 0.0 0.0 0.0
0.0 0.0 0.0 0.0 0.0 0.0 0.0 0.0
0.0 0.0 0.0 0.0 0.0 0.0 0.0 0.0
0.0 0.0 0.0 0.0 0.0 0.0 0.0 0.0
0.0 0.0 0.0 0.0 0.03154889 -0.7419016 -0.29778957 0.017165666
-0.1772239 -0.13342951 0.29395735 1.3849541 0.12091276 2.5417871 -0.64046 -1.9740105
-0.32956925 0.007958851 0.9262348 -1.8845556 0.1669616 0.45862234 -1.7662065 0.5859862
1.7510315 0.28072214 0.31096315 -0.65375805 -0.65762633 0.31844944 -0.5495865 -1.4649245
-2.0555017 1.8274626 1.3035277 -0.450132 1.3471215 1.6909801 -0.12444574 -1.6823665
-0.026608044 0.07404919 1.0517149 0.6778932 0.30665475 -0.7472333 0.7434943 0.88765764
2.2874365 0.96113855 -1.5296903 -0.29122463 -0.11395203 -0.31366795 -0.6293117 1.1385068
-0.99127394 0.1699892 1.2248735 -0.23453896 -1.0571605 -0.65426755 1.590885 -0.6994915
-0.89605623 0.0661913 -0.056280244 2.341223 -2.723433 0.509673 -0.8144687 -0.2460404
0.0045085433 2.0474298 -0.15754561 -0.21867052 -1.3519301 -0.057280593 -1.853978 -1.38489
-0.34539968 -1.1625037 0.14448078 0.16632313 0.75069964 0.9131729 -1.7277395 1.3055398
0.95932335 1.0599629 0.62986356 -1.2866658 -0.68748116 2.1382189 0.51141226 1.21909
0.19098009 -0.3425078 1.7955087 1.3914595 1.0785228 -0.6149516 -0.45885316 0.5674816
0.07397284 -1.6713277 1.2020514 0.41420394 -1.1366888 -1.0718 -0.09563507 0.08242617
0.23713478 -0.5862545 -0.40575865 -0.33239782 0.7795777 0.74995846 1.0822935 0.7363433
0.52459556 0.95837516 -0.23689854 -0.75714976 -0.609447 0.40284875 -0.3735779 -0.58183044
-0.62131894 -0.19135274 -0.1267427 -0.38702706 0.11309231 0.6641758 -0.09665768 -0.5986118
0.8881313 -1.5492889 0.7004176 -2.0149286 -1.1074977 0.12870999 -0.48915327 -0.49636024
1.5700114 -0.016123438 -0.8360283 -1.1202561 0.48718268 -0.3319181 -0.13697612 -0.7773385
-0.16674824 0.2871838 -0.701999 -1.2990522 1.2085118 -1.9510425 -0.47080752 1.221318
00000000: 0000 0000 0000 0000 0000 0000 0000 0000
00000010: 0000 0000 0000 0000 0000 0000 0000 0000
00000020: 0000 0000 0000 0000 0000 0000 0000 0000
00000030: 0000 0000 0000 0000 0000 0000 0000 0000
00000040: 0000 0000 0000 0000 0000 0000 0000 0000
00000050: 0000 0000 0000 0000 0000 0000 0000 0000
00000060: 0000 0000 0000 0000 0000 0000 0000 0000
00000070: 0000 0000 0000 0000 0000 0000 0000 0000
00000080: 0000 0000 0000 0000 0000 0000 0000 0000
00000090: 0000 0000 0000 0000 0000 0000 0000 0000
000000a0: 0000 0000 0000 0000 0000 0000 0000 0000
000000b0: 0000 0000 0000 0000 0000 0000 0000 0000
000000c0: 0000 0000 0000 0000 0000 0000 0000 0000
000000d0: 0000 0000 0000 0000 0000 0000 0000 0000
000000e0: 0000 0000 0000 0000 0000 0000 0000 0000
000000f0: 0000 0000 0000 0000 0000 0000 0000 0000
00000100: 0000 0000 0000 0000 0000 0000 0000 0000
00000110: 0000 0000 0000 0000 0000 0000 0000 0000
00000120: 0000 0000 0000 0000 0000 0000 0000 0000
00000130: 0000 0000 0000 0000 0000 0000 0000 0000
00000140: 0000 0000 0000 0000 0000 0000 0000 0000
00000150: 0000 0000 0000 0000 0000 0000 0000 0000
00000160: 0000 0000 0000 0000 0000 0000 0000 0000
00000170: 0000 0000 0000 0000 0000 0000 0000 0000
00000180: 0000 0000 0000 0000 0000 0000 0000 0000
00000190: 6939 013d 43ed 3dbf e077 98be 039f 8c3c
000001a0: 2f7a 35be bfa1 08be 9481 963e 2d46 b13f
000001b0: 1ca1 f73d a4ac 2240 30f5 23bf 60ac fcbf
000001c0: 4dbd a8be d765 023c b91d 6d3f 1e39 f1bf
000001d0: fbf7 2a3e 8cd0 ea3e 0e13 e2bf 3103 163f
000001e0: cd21 e03f d0ba 8f3e 9036 9f3e b05c 27bf
000001f0: 335a 28bf ce0b a33e b3b1 0cbf a582 bbbf
00000200: 578d 03c0 4bea e93f ffd9 a63f b477 e6be
00000210: 7a6e ac3f 0972 d83f 68dd febd c957 d7bf
00000220: 1df9 d9bc 1aa7 973d 989e 863f 698a 2d3f
00000230: da01 9d3e ae4a 3fbf a455 3e3f 883d 633f
00000240: 5c65 1240 2d0d 763f e4cc c3bf 651b 95be
00000250: af5f e9bd 1699 a0be 921a 21bf 97ba 913f
00000260: 21c4 7dbf a611 2e3e a8c8 9c3f fb2a 70be
00000270: 0951 87bf 147e 27bf 1fa2 cb3f e011 33bf
00000280: f163 65bf 4e8f 873d 1d86 66bd 99d6 1540
00000290: ba4c 2ec0 ee79 023f 0581 50bf 04f2 7bbe
000002a0: 67bc 933b 1709 0340 a353 21be 2aeb 5fbe
000002b0: 0c0c adbf 0e9f 6abd 274f edbf 1344 b1bf
000002c0: 3ad8 b0be eccc 94bf c5f2 133e 9c50 2a3e
000002d0: da2d 403f b3c5 693f 9126 ddbf ee1b a73f
000002e0: 3796 753f ddac 873f bd3e 213f 77b1 a4bf
000002f0: c4fe 2fbf 94d8 0840 eaeb 023f 240b 9c3f
00000300: 4990 433e 2f5d afbe 3bd3 e53f 581b b23f
00000310: 090d 8a3f 786d 1dbf cdee eabe 7946 113f
00000320: 137f 973d 11ee d5bf d2dc 993f 8a12 d43e
00000330: 057f 91bf be30 89bf 52dc c3bd 0dcf a83d
00000340: 76d3 723e c614 16bf 99bf cfbe 0c30 aabe
00000350: 6792 473f 47fd 3f3f 9888 8a3f ff80 3c3f
00000360: e54b 063f 1358 753f 8895 72be 91d4 41bf
00000370: b804 1cbf 3142 ce3e 9a45 bfbe d7f2 14bf
00000380: c20e 1fbf f9f1 43be d7c8 01be 6928 c6be
00000390: f19c e73d 6d07 2a3f 76f4 c5bd 9f3e 19bf
000003a0: 935c 633f 194f c6bf 914e 333f 97f4 00c0
000003b0: 7cc2 8dbf 8dcc 033e 4c72 fabe ee22 febe
000003c0: 22f6 c83f 4d15 84bc f305 56bf 8d64 8fbf
000003d0: 0270 f93e 2bf1 a9be 7843 0cbe a8ff 46bf
000003e0: 0dc0 2abe c109 933e 35b6 33bf 5847 a6bf
000003f0: 84b0 9a3f c3bb f9bf af0d f1be 2654 9c3f

rnn.rnn_cell.weight_ih f4 [64, 100]
-0.12099113 0.018502455 0.06567418 -0.02291574 -0.06479101 0.12666458 -0.08876831 0.14192106
-0.049728967 -0.056489572 -0.02030383 0.09737871 -0.10288038 -0.053363804 -0.14966294 -0.09566651
-0.03560307 0.056102823 0.0010524876 -0.09151625 -0.09102652 0.0068014036 0.041267358 -0.039834715
0.11013369 -0.03831314 0.10493473 -0.13656639 -0.060347445 -0.0087782685 0.0056616846 0.09074403
-0.1363895 0.108161524 -0.11977838 0.1517822 0.16714478 0.061982032 0.10897351 0.08832033
-0.10252771 -0.087700345 -0.061893906 0.027232483 0.11890601 0.084238835 -0.0013851712 0.060619123
-0.019671496 -0.022688286 -0.06324793 -0.09015575 0.004436201 0.05269755 -0.11611088 -0.17295378
0.028955469 0.0729487 -0.056497365 0.07530251 -0.032334182 0.10898319 0.10452826 0.014839735
-0.08227645 0.015835928 -0.11743581 0.00780657 -0.06587449 -0.1342625 0.012306635 -0.065812886
-0.09621689 0.011826126 0.055218417 0.09337149 -0.1864463 0.11837152 -0.12683435 -0.03970829
0.1508183 0.08196055 -0.13113223 0.12898017 -0.05846474 0.10081241 -0.068764105 0.08901211
-0.014472321 0.0032583007 0.17422067 0.008511585 0.11226507 -0.124234304 -0.0907513 -0.06660551
0.07795388 -0.055077784 0.08841289 0.16447851 0.07620936 0.003181111 0.06575317 0.066145785
-0.09790421 -6.3593965e-05 0.032107104 0.026170824 0.002213025 -0.0009736015 0.06945607 0.040130753
0.07008959 -0.088802285 0.06049313 -0.0550336 0.046037275 -0.016790582 -0.037666865 -0.0139201
-0.09826237 -0.19095851 0.042483956 0.03596527 -0.03386102 0.17955028 -0.11388751 -0.21779172
-0.062115606 -0.028750563 0.11363953 0.118846886 -0.056753993 -0.031930845 0.09191029 0.07717923
0.005313593 -0.03569781 -0.11657729 0.0015728053 0.02647471 -0.049602557 -0.14604291 0.055928975
-0.18167238 -0.20877907 -0.06985632 -0.18699498 0.051001374 0.065900676 -0.073598504 -0.17490098
0.07201462 -0.10085902 0.08375403 0.13643734 0.18872423 -0.04500991 -0.15058747 -0.05076412
-0.070721075 -0.030394148 -0.17481817 0.08012033 -0.04055215 0.101291485 0.050607044 0.07625148
-0.19848712 -0.035685163 0.036941554 0.13265644 0.11238211 -0.009363501 -0.061438534 0.08808922
-0.09648532 0.0066595417 -0.06812418 -0.059561122 0.026347829 0.18596421 0.07011085 -0.18661253
-0.045971896 0.0011813049 0.12481028 -0.21355264 -0.10631694 0.013424064 -0.06578004 -0.021268917
0.054801382 0.049335487 -0.018994581 0.024164697 0.02166079 -0.13225073 -0.15175553 0.18205953
0.010270365 0.03817787 0.0010700809 -0.123170815 -0.07205544 0.08721932 0.05997327 -0.07441722
-0.054263156 0.09719902 -0.06255169 -0.121918276 0.066324286 -0.057691388 0.105344035 0.057705723
0.089253604 -0.12578529 0.011434841 -0.017386258 -0.044518467 0.08668278 0.14978035 0.10505339
0.08242322 0.09851584 0.030238025 0.09531607 -0.03050406 0.02277135 0.063541904 -0.091673575
-0.16221482 0.036198113 0.064720586 0.15549171 -0.11971198 0.035472646 0.11615045 -0.0020896432
-0.16074443 -0.048933804 0.075587004 -0.028327918 -0.12659639 -0.16210812 -0.082438305 -0.038060814
-0.062672354 0.12263145 -0.14852244 0.058548592 0.09003146 0.026161546 0.088683404 -0.17447568
00000000: 33ca f7bd 7692 973c 2f80 863d cab9 bbbc
00000010: 26b1 84bd 5cb4 013e 29cc b5bd c153 113e
00000020: 9ab0 4bbd 9c61 67bd 3854 a6bc 7d6e c73d
00000030: f3b2 d2bd 0194 5abd 3e41 19be ceec c3bd
00000040: 86d4 11bd 13cc 653d a0f3 893a df6c bbbd
00000050: 1d6c babd 4fde de3b f607 293d ba29 23bd
00000060: c68d e13d 3dee 1cbd 05e8 d63d 0fd8 0bbe
00000070: e22e 77bd bad2 0fbc a785 b93b 02d8 b93d
00000080: b0a9 0bbe ca83 dd3d 5e4e f5bd cb6c 1b3e
00000090: 0028 2b3e dfe0 7d3d 812d df3d 4ae1 b43d
000000a0: 0cfa d1bd 3d9c b3bd 7784 7dbd a816 df3c
000000b0: ff84 f33d 6985 ac3d a28e b5ba c24b 783d
000000c0: 1e26 a1bc c9dc b9bc 2188 81bd 94a3 b8bd
000000d0: 8d5d 913b 63d9 573d 8bcb edbd cc1a 31be
000000e0: 0534 ed3c 2166 953d c869 67bd 3438 9a3d
000000f0: d970 04bd 9432 df3d ea12 d63d 5c22 733c
00000100: 8e80 a8bd 59ba 813c 3082 f0bd 41ce ff3b
00000110: 34e9 86bd 1c7c 09be c5a1 493c e8c8 86bd
00000120: 5c0d c5bd 5ec2 413c b52c 623d 8d39 bf3d
00000130: c7eb 3ebe c46c f23d dde0 01be 29a5 22bd
00000140: 1d70 1a3e efda a73d 8747 06be 6113 043e
00000150: b978 6fbd bd76 ce3d 32d4 8cbd fb4b b63d
00000160: 501d 6dbc 3789 553b e766 323e 2d74 0b3c
00000170: 3beb e53d 8e6e febd d1db b9bd 7868 88bd
00000180: 49a6 9f3d 3e99 61bd d111 b53d 0e6d 283e
00000190: a713 9c3d 307a 503b 99a9 863d 7177 873d
000001a0: 0182 c8bd c05d 85b8 bd82 033d 3264 d63c
000001b0: 6608 113b 4a39 7fba fc3e 8e3d 2560 243d
000001c0: 228b 8f3d f9dd b5bd a5c7 773d ea6a 61bd
000001d0: 9591 3c3d 678c 89bc 9248 1abd 2211 64bc
000001e0: c83d c9bd a18a 43be a803 2e3d 5250 133d
000001f0: dab1 0abd 07dc 373e db3d e9bd cb04 5fbe
00000200: ef6c 7ebd 4d86 ebbc d8bb e83d ff65 f33d
00000210: e076 68bd ebc9 02bd 763b bc3d 2510 9e3d
00000220: a61d ae3b de37 12bd 13c0 eebd 9726 ce3a
00000230: 7ee1 d83c 0d2c 4bbd 468c 15be c815 653d
00000240: 5308 3abe 2eca 55be d510 8fbd 9d7b 3fbe
00000250: d1e6 503d eff6 863d d0ba 96bd 3e19 33be
00000260: 677c 933d 2d8f cebd 3c87 ab3d 3bb6 0b3e
00000270: ed40 413e 505c 38bd 9a33 1abe 0aee 4fbd
00000280: 36d6 90bd 26fd f8bc 8903 33be 2116 a43d
00000290: 031a 26bd e971 cf3d 5549 4f3d bc29 9c3d
000002a0: 3540 4bbe 9b2a 12bd 0750 173d 17d7 073e
000002b0: 9728 e63d 5f69 19bc f9a6 7bbd 1f68 b43d
000002c0: 189a c5bd 4938 da3b b184 8bbd 5df6 73bd
000002d0: 67d7 d73c 676d 3e3e 4796 8f3d 5b17 3fbe
000002e0: 074d 3cbd 04d6 9a3a 889c ff3d 8bad 5abe
000002f0: b2bc d9bd 9bf0 5b3c b0b7 86bd 273c aebc
00000300: 6a77 603d 0214 4a3d 869a 9bbc 0bf5 c53c
00000310: f871 b13c bc6c 07be cd65 1bbe d06d 3a3e
00000320: 0845 283c 6660 1c3d f541 8c3a fb40 fcbd
00000330: cd91 93bd 0ba0 b23d 88a6 753d 0e68 98bd
00000340: 0b43 5ebd 4810 c73d 1a1b 80bd 4ab0 f9bd
00000350: 07d5 873d ce4d 6cbd 9dbe d73d d65c 6c3d
00000360: 98ca b63d dccd 00be 3359 3b3c a06d 8ebc
00000370: ff58 36bd be86 b13d 0560 193e 3b26 d73d
00000380: 81cd a83d acc2 c93d bcb5 f73c 1235 c33d
00000390: a7e3 f9bc fb8a ba3c 4222 823d 5bbf bbbd
000003a0: a41b 26be 7944 143d 3a8c 843d 3839 1f3e
000003b0: 8e2b f5bd c44b 113d 4ae0 ed3d 65f2 08bb
000003c0: 309a 24be d06e 48bd 5ccd 9a3d f30f e8bc
000003d0: 7ca2 01be acff 25be 6ad5 a8bd a8e5 1bbd
000003e0: 5d5a 80bd 3326 fb3d 4416 18be a6d0 6f3d
000003f0: 6a62 b83d bd50 d63c a59f b53d c1a9 32be

rnn.rnn_cell.weight_hh f4 [64, 64]
0.1876371 0.030459967 -0.006839123 -0.07885836 -0.28040215 -0.0066333953 -0.049862597 0.14864998
-0.011577163 0.11286268 0.21780168 0.018734343 -0.013837457 0.008830844 0.122771196 0.1506614
0.12379747 -0.08472294 0.14899507 0.033783462 -0.2247526 0.13245133 -0.00036431392 -0.0779836
0.22282515 -0.05930895 -0.11649321 0.2231683 -0.21944605 0.19283628 -0.013785837 0.10213215
-0.21253891 0.20430627 -0.014024532 -0.108784996 -0.1111751 0.18875687 0.05505823 0.03245118
0.12552083 -0.18798442 -0.107116535 0.14898014 0.0781068 -0.1576163 -0.1644009 -0.10059929
-0.22857137 0.020255867 -0.19751315 0.03902276 -0.18067755 -0.021881308 0.020127986 0.056465678
0.01696829 0.20768966 -0.05175312 0.16762374 -0.07690263 0.08628636 -0.034599796 -0.0014249417
0.07939555 -0.14649619 0.11347143 0.1372298 -0.0751543 -0.06124733 0.06758937 0.10482171
0.26777336 0.0626991 -0.12921436 0.008193011 0.23172233 -0.21338247 0.11340565 0.073760584
0.17703448 -0.06237115 -0.08128292 -0.078997724 0.16977805 -0.1635049 -0.021127 -0.09940201
-0.038331863 -0.0067564175 -0.12975462 0.21847838 -0.0020374109 -0.13382761 -0.007912654 -0.17773785
-0.023937736 -0.07565082 0.08725213 0.10000736 0.12621745 0.21981709 0.1320364 0.13227528
0.10039496 0.15361427 -0.005365714 -0.019009713 -0.01815493 -0.06532612 -0.19150044 0.18067099
-0.24680796 -0.09374563 0.10129057 0.08404244 0.06965869 0.045279887 -0.09910521 -0.09175819
-0.017271722 -0.035801496 -0.0521682 0.069645874 -0.06520644 -0.32723767 0.1495488 -0.020239547
-0.07088125 -0.13248004 0.03347315 -0.025825398 -0.107388176 0.06253147 0.095431514 -0.0832987
-0.010799344 -0.007615397 -0.010350058 0.21406761 0.028626045 0.09917375 -0.17452621 0.01303279
-0.011586575 -0.21410151 0.030202832 -0.14251775 0.025512574 -0.29776713 0.072931156 0.103767835
-0.18318124 -0.14063776 0.03221307 0.032819655 0.13440749 0.06572305 0.1578061 -0.111059874
-0.10532017 0.02248845 -0.0006999941 0.22130959 0.1647534 0.049713153 -0.10451603 -0.096056886
0.06861516 0.04294867 0.18330044 -0.109816566 0.09547501 -0.25380507 -0.054615643 0.07868761
0.10971262 -0.019468473 -0.017775137 0.12686315 -0.09116016 0.14028092 -0.007332191 0.08553091
0.15310016 0.07526512 -0.020976191 -0.15550895 0.05930771 -0.09524546 0.03414097 -0.12988634
-0.10979073 -0.036498316 0.22857098 0.056571897 0.14042433 0.04137548 0.1755096 -0.21405892
-0.06723481 0.017255358 -0.2036507 -0.028350081 0.041333858 0.20803909 0.06866538 0.109474674
0.19927867 -0.035414148 -0.12783094 -0.23621368 -0.1106614 -0.1629872 -0.041231513 -0.19147365
-0.28690058 0.14599885 0.10738632 -0.010907485 -0.0671303 0.10385326 -0.09213849 0.03032115
-0.13606967 -0.035175726 0.13371605 -0.025348658 0.24985217 0.012044137 -0.014027799 0.04675347
0.10588064 -0.14513855 0.072499976 -0.0931922 -0.0847699 -0.025374861 -0.113731466 -0.0045288275
0.06000498 0.03830508 -0.039927956 0.07678323 -0.04977291 0.17360955 0.10184388 -0.08607036
-0.11646234 0.18227 -0.067084886 -0.0025522702 0.2545329 -0.26632896 -0.0037901944 -0.099968955
00000000: f123 403e 2e87 f93c b91a e0bb 7e80 a1bd
00000010: df90 8fbe f45c d9bb b93c 4cbd b337 183e
00000020: 24ae 3dbc 8c24 e73d 6707 5f3e c478 993c
00000030: 80b6 62bc 3faf 103c 776f fb3d fb46 1a3e
00000040: 8789 fd3d 3983 adbd 2a92 183e 8760 0a3d
00000050: 8c25 66be 52a1 073e 6301 bfb9 deb5 9fbd
00000060: 472c 643e f1ed 72bd fe93 eebd 3b86 643e
00000070: 77b6 60be e076 453e fedd 61bc a92a d13d
00000080: cda3 59be aa35 513e 27c7 65bc abca debd
00000090: c5af e3bd 7b49 413e bd84 613d 87eb 043d
000000a0: 8888 003e fd7e 40be ea5f dbbd 408e 183e
000000b0: 75f6 9f3d 2b66 21be b658 28be 0007 cebd
000000c0: 9d0e 6abe a2ef a53c e340 4abe 54d6 1f3d
000000d0: 8903 39be 6e40 b3bc 72e3 a43c 8e48 673d
000000e0: 1501 8b3c 99ac 543e 14fb 53bd 8fa5 2b3e
000000f0: 207f 9dbd e7b6 b03d 84b8 0dbd 1cc5 baba
00000100: 229a a23d 1903 16be b663 e83d f885 0c3e
00000110: 7fea 99bd 7bde 7abd 4c6c 8a3d c4ac d63d
00000120: 9719 893e 6368 803d c550 04be fb3b 063c
00000130: 9e48 6d3e ef80 5abe 3941 e83d ca0f 973d
00000140: 8748 353e e478 7fbd a977 a6bd 8fc9 a1bd
00000150: 4cda 2d3e d46d 27be 8812 adbc 4893 cbbd
00000160: df01 1dbd f064 ddbb 65de 04be ccb8 5f3e
00000170: 1586 05bb 1b0a 09be 14a4 01bc e900 36be
00000180: 1219 c4bc d1ee 9abd 3fb1 b23d a9d0 cc3d
00000190: 263f 013e bb17 613e 8d34 073e 2c73 073e
000001a0: df9b cd3d 0f4d 1d3e dfd2 afbb 42ba 9bbc
000001b0: a6b9 94bc b3c9 85bd b118 44be d101 393e
000001c0: 3abb 7cbe b5fd bfbd 6e71 cf3d 711e ac3d
000001d0: 37a9 8e3d 6777 393d acf7 cabd b8eb bbbd
000001e0: 6d7d 8dbc 97a4 12bd 53ae 55bd 7fa2 8e3d
000001f0: f48a 85bd b28b a7be 5223 193e 68cd a5bc
00000200: 302a 91bd d9a8 07be 241b 093d c98f d3bc
00000210: 55ee dbbd 8010 803d 9971 c33d 8298 aabd
00000220: bbef 30bc 958a f9bb 4a93 29bc 8a34 5b3e
00000230: 2b81 ea3c 9b1b cb3d 00b7 32be 7c87 553c
00000240: 9ed5 3dbc 6d3d 5bbe ee6b f73c 2cf0 11be
00000250: bfff d03c ef74 98be ee5c 953d 3b84 d43d
00000260: dd93 3bbe 5803 10be daf1 033d e76d 063d
00000270: 1ea2 093e ce99 863d ec97 213e 5c73 e3bd
00000280: 1ab2 d7bd b339 b83c cf7f 37ba fb9e 623e
00000290: 1eb5 283e 05a0 4b3d 800c d6bd 79b9 c4bd
000002a0: 1b86 8c3d f2ea 2f3d 1cb3 3b3e 82e7 e0bd
000002b0: 6788 c33d bdf2 81be a7b4 5fbd f826 a13d
000002c0: 03b1 e03d 597c 9fbc 2a9d 91bc 6ae8 013e
000002d0: 2eb2 babd cda5 0f3e e042 f0bb d42a af3d
000002e0: 4ac6 1c3e 9924 9a3d 43d6 abbc bd3d 1fbe
000002f0: a4ec 723d 0d10 c3bd 67d7 0b3d ed00 05be
00000300: f6d9 e0bd 427f 15bd 830e 6a3e efb7 673d
00000310: 65cb 0f3e 5679 293d cab8 333e 4332 5bbe
00000320: 67b2 89bd 1c5b 8d3c cf89 50be 6e3e e8bc
00000330: b14d 293d 3308 553e 6fa0 8c3d 4234 e03d
00000340: b50f 4c3e 6d0e 11bd 1de6 02be 00e2 71be
00000350: 72a2 e2bd 1ee6 26be 60e2 28bd ab11 44be
00000360: a2e4 92be b980 153e 5ced db3d 4fb5 32bc
00000370: 9c7b 89bd 05b1 d43d 1bb3 bcbd 0f64 f83c
00000380: d955 0bbe 6c14 10bd dcec 083e fda7 cfbc
00000390: 3fd9 7f3e c654 453c dad4 65bc 9180 3f3d
000003a0: f3d7 d83d 339f 14be de7a 943d 8ddb bebd
000003b0: d79b adbd f1de cfbc 0bec e8bd 8f66 94bb
000003c0: c8c7 753d cae5 1c3d 7f8b 23bd 8740 9d3d
000003d0: aede 4bbd b4c6 313e 8693 d03d a845 b0bd
000003e0: cf83 eebd fda4 3a3e cd63 89bd fd43 27bb
000003f0: 2352 823e 455c 88be e964 78bb 86bc ccbd

rnn.rnn_cell.bias_ih f4 [64]
-0.09966549 -0.087295845 -0.108727336 0.14645064 -0.09464402 -0.028332144 0.035207853 -0.075509
-0.09559258 0.072485395 0.030908601 0.0055978782 0.09607767 0.025033418 0.077360235 0.028689025
-0.06865666 -0.07502561 -0.0840062 -0.013703755 -0.066977315 0.073089495 0.0042894618 -0.13922523
0.03558559 -0.13337155 0.07798439 -0.11593711 -0.094444595 0.032568086 -0.11843935 -0.006260536
0.022837268 0.066561334 0.08210501 0.030072944 0.075819924 0.15574561 -0.054376666 0.010331335
-0.059997436 0.08074281 0.084990054 0.07989829 0.010517964 0.0014518015 -0.122630775 0.118574195
-0.066757254 0.058347926 -0.12965722 0.07021342 -0.12934993 -0.106550805 -0.10017523 -0.050722335
0.08993116 0.010469824 0.047080237 -0.10173774 0.016833361 0.015994564 0.0072603254 -0.07945291
00000000: 6c1d ccbd 2ac8 b2bd 70ac debd 28f7 153e
00000010: b9d4 c1bd d018 e8bc 1c36 103d 76a4 9abd
00000020: 0bc6 c3bd 3973 943d 0934 fd3c 686e b73b
00000030: 5fc4 c43d e212 cd3c 0b6f 9e3d 3f05 eb3c
00000040: dd9b 8cbd 07a7 99bd 710b acbd b785 60bc
00000050: 672b 89bd f2af 953d 9d8e 8c3b 0f91 0ebe
00000060: 32c2 113d 8d92 08be 48b6 9f3d 6f70 edbd
00000070: 2b6c c1bd 1d66 053d 5490 f2bd 2f25 cdbb
00000080: 3915 bb3c 4f51 883d ac26 a83d 895b f63c
00000090: 7a47 9b3d c77b 1f3e 11ba 5ebd c244 293c
000000a0: dfbf 75bd 7d5c a53d 440f ae3d b7a1 a33d
000000b0: 8a53 2c3c 604a be3a d825 fbbd 07d7 f23d
000000c0: 07b8 88bd 3cfe 6e3d ddc4 04be 0ecc 8f3d
000000d0: 4f74 04be 4f37 dabd ac28 cdbd 39c2 4fbd
000000e0: d42d b83d a089 2b3c 35d7 403d e05b d0bd
000000f0: 1ee6 893c 0807 833c 06e8 ed3b 35b8 a2bd

rnn.rnn_cell.bias_hh f4 [64]
-0.0005778216 0.05112841 -0.101872906 0.07704634 0.007552797 0.07257185 -0.013297241 0.033384763
-0.09221495 -0.09979921 0.06149688 -0.09114198 -0.044283573 -0.07248105 -0.026079873 0.11780539
-0.0012080047 0.06886106 0.057275195 0.08362685 0.09103517 0.018695435 -0.04862412 0.05229275
0.08386322 -0.12562652 -0.061937712 -0.009547139 0.097254284 0.035521034 0.11861595 -0.09066042
-0.11731888 0.10484349 -0.08137575 -0.082434826 -0.08399543 0.18048814 0.097939044 -0.020684188
0.12431097 -0.1131848 -0.06498729 0.039464813 0.051742896 -0.09614932 -0.05227033 -0.03323264
0.03362428 -0.089400396 0.012960275 -0.08398693 0.057233468 0.0975517 0.09818232 -0.015866183
0.029401662 -0.021910792 -0.11511196 -0.11039536 0.06380243 0.08474802 -0.004131926 -0.122247204
00000000: f378 17ba 066c 513d bea2 d0bd 79ca 9d3d
00000010: 747d f73b 8da0 943d acdc 59bc 76be 083d
00000020: 31db bcbd 8763 ccbd 27e4 7b3d a5a8 babd
00000030: b162 35bd f270 94bd 75a5 d5bc f443 f13d
00000040: e955 9eba 0707 8d3d 6599 6a3d 8e44 ab3d
00000050: a670 ba3d 2b27 993c 162a 47bd ec30 563d
00000060: 7bc0 ab3d 3da4 00be 66b2 7dbd 9a6b 1cbc
00000070: 412d c73d 817e 113d ebec f23d 2cac b9bd
00000080: e244 f0bd 2fb8 d63d 54a8 a6bd 97d3 a8bd
00000090: cc05 acbd e2d1 383e 4494 c83d e371 a9bc
000000a0: c096 fe3d 6fcd e7bd 0e18 85bd dba5 213d
000000b0: 5cf0 533d efe9 c4bd 6a19 56bd f31e 08bd
000000c0: 9db9 093d 8e17 b7bd 5557 543c 5701 acbd
000000d0: a46d 6a3d 30c9 c73d d013 c93d ccf9 81bc
000000e0: c1db f03c 437e b3bc d2bf ebbd f616 e2bd
000000f0: d9aa 823d 5f90 ad3d 1c65 87bb be5c fabd

fc1.weight f4 [64, 64]
-0.03769365 -0.053765 0.085506715 -0.12925677 0.121156015 -0.19838491 -0.19247091 -0.02808296
-0.119446866 -0.055919785 -0.11311475 -0.031001084 0.16128716 -0.122568086 0.019696891 -0.12850542
0.013993938 0.12472116 -0.10834897 0.103631295 -0.1788271 -0.019191375 -0.10262488 -0.007488602
-0.07757728 0.04094095 -0.09693861 -0.081734754 0.052981284 0.11168629 -0.0009923476 -0.054154914
-0.03749734 0.061477985 0.03671153 0.11709857 0.13589624 -0.031740535 -0.001166858 -0.028277095
-0.005086787 0.04386132 0.10011548 -0.15406442 0.07721696 0.12699376 0.13423473 -0.010351004
0.14137672 -0.04033821 -0.16929209 -0.06662637 -0.10746327 0.065561965 0.077733554 0.04530356
0.03739082 0.18803039 -0.114158735 0.14975528 -0.008813012 -0.14440225 -0.15971808 0.12508486
-0.09229777 0.09468431 -0.09939657 0.011852324 0.1475596 -0.04439054 0.14974228 -0.08268345
-0.067918375 -0.14596298 0.02862165 -0.07732202 -0.17489448 0.1479128 0.107630916 0.03701885
0.17887785 0.08068648 0.17665724 -0.01528948 0.026019713 0.10542981 0.06719284 0.097839326
0.25743943 0.0038265544 -0.06763951 -0.09012277 0.024548938 0.07974071 0.0062020808 -0.027793098
0.0027833043 0.0010312782 0.020088635 -0.16655315 -0.04547794 0.09013488 -0.018794425 -0.078700475
-0.061083645 -0.12994978 -0.045441814 0.029103603 -0.12917998 0.09329166 0.046511654 -0.038692836
-0.07383525 0.097087905 0.03830102 0.028515726 0.01728516 0.0050344 -0.07568509 -0.078797996
-0.12299482 -0.090900116 -0.02924157 -0.035479378 0.032128036 -0.1384687 -0.04763126 -0.06595919
-0.057208315 0.11436633 -0.014068408 -0.08053494 -0.013986724 -0.11438613 -0.09295734 0.15124363
-0.03380602 0.20179017 0.065732 0.008682253 -0.06724559 -0.14908256 0.16209607 0.07203683
-0.112107724 0.08650862 -0.1583224 -0.018173749 -0.008529133 -0.15705182 0.11940051 0.024390053
-0.14832792 0.13364041 0.0939146 -0.039452545 -0.10462157 0.005532415 0.026731517 -0.124651894
-0.060497757 -0.03475809 0.16781777 0.0062180446 0.05593175 0.17226888 0.0021445884 -0.051172502
-0.12790926 0.11378707 -0.107334636 0.10652952 -0.105302066 0.1819653 -0.094338134 -0.008774405
-0.1940631 -0.11565502 -0.044233065 -0.020100227 0.06617608 -0.1828033 0.07489362 -0.018519793
-0.1153826 0.05328497 0.103344746 -0.094868004 -0.21234323 0.033661406 0.15069693 -0.124241754
0.02996954 0.016686132 0.058466785 0.01833668 0.04552515 0.11278407 0.06917938 0.114878684
-0.065299936 -0.09112255 0.1461325 -0.19330765 -0.048950706 -0.14968947 -0.008031797 -0.041941885
-0.07838342 0.08598489 -0.04722919 0.20974939 -0.051046558 -0.010507626 -0.1290428 0.12992607
0.11015844 -0.12409074 0.20372057 0.019958345 0.096442066 -0.055988394 -0.10669774 0.040607292
0.02608825 -0.112582415 -0.12737557 0.052935015 0.10510331 0.072168335 0.028368784 -0.011983425
-0.06667806 0.020541385 -0.039754413 -0.04128954 -0.031096535 0.117678486 -0.04329979 -0.063240096
-0.052036647 0.23874475 0.013485872 0.022676533 -0.063086405 0.090611994 0.029675175 -0.07276538
-0.009466038 -0.12175184 -0.15426709 -0.14340845 -0.032865953 -0.14962272 -0.023463158 0.07030332
00000000: a864 1abd b038 5cbd 251e af3d e35b 04be
00000010: a520 f83d 6a25 4bbe 1817 45be 3c0e e6bc
00000020: 8fa0 f4bd 250c 65bd b5a8 e7bd fcf5 fdbc
00000030: 7628 253e fa04 fbbd 605b a13c ed96 03be
00000040: d546 653c cf6d ff3d 11e6 ddbd a53c d43d
00000050: 741e 37be 3b37 9dbc fe2c d2bd f262 f5bb
00000060: d6e0 9ebd b3b1 273d c087 c6bd 8d64 a7bd
00000070: e702 593d c8bb e43d a911 82ba 8bd1 5dbd
00000080: d096 19bd 57d0 7b3d d45e 163d 60d1 ef3d
00000090: 6228 0b3e 5d02 02bd 42f1 98ba 5ea5 e7bc
000000a0: 10af a6bb eda7 333d 5809 cd3d 10c3 1dbe
000000b0: ed23 9e3d a70a 023e d474 093e 4297 29bc
000000c0: 0fc5 103e ae39 25bd e85a 2dbe 6873 88bd
000000d0: b415 dcbd 5a45 863d c532 9f3d 3a90 393d
000000e0: 1e27 193d 0a8b 403e 0ecc e9bd 7359 193e
000000f0: 7464 10bc 2fde 13be 238d 23be 3f16 003e
00000100: 9d06 bdbd d9e9 c13d 6e90 cbbd 4030 423c
00000110: dd19 173e dbd2 35bd 0a56 193e f155 a9bd
00000120: ca18 8bbd 5277 15be f377 ea3c 025b 9ebd
00000130: 8a17 33be 7476 173e 996d dc3d 14a1 173d
00000140: c12b 373e f43e a53d a3e5 343e ba80 7abc
00000150: 4b27 d53c 96eb d73d 669c 893d fc5f c83d
00000160: 1acf 833e eec6 7a3b 9586 8abd 4992 b8bd
00000170: db1a c93c 194f a33d d33a cb3b 5aae e3bc
00000180: 1968 363b f42b 873a ec90 a43c e98c 2abe
00000190: 1447 3abd a398 b83d c4f6 99bc b72d a1bd
000001a0: d832 7abd 8e11 05be 3221 3abd ae6a ee3c
000001b0: c247 04be b30f bf3d 0183 3e3d 617c 1ebd
000001c0: f036 97bd 06d6 c63d 88e1 1c3d d099 e93c
000001d0: 9c99 8d3c 9cf7 a43b c900 9bbd d860 a1bd
000001e0: b5e4 fbbd d729 babd 048c efbc d352 11bd
000001f0: b098 033d bdca 0dbe ff18 43bd 9d15 87bd
00000200: 4453 6abd e538 ea3d 2e7f 66bc 81ef a4bd
00000210: 9328 65bc 4643 eabd 6b60 bebd 9cdf 1a3e
00000220: 2e78 0abd 15a2 4e3e 809e 863d 0240 0e3c
00000230: 0eb8 89bd 19a9 18be 83fc 253e 0c88 933d
00000240: bc98 e5bd 6e2b b13d 441f 22be 1de1 94bc
00000250: c7bd 0bbc 31d2 20be 4188 f43d a6cd c73c
00000260: 46e3 17be 08d9 083e 4c56 c03d fe98 21bd
00000270: d543 d6bd 4349 b53b 0efc da3c 7e49 ffbd
00000280: 7fcc 77bd 805e 0ebd 6cd8 2b3e bdc0 cb3b
00000290: b118 653d 4167 303e 398c 0c3b 429a 51bd
000002a0: a5fa 02be 3209 e93d 43d2 dbbd 262c da3d
000002b0: 9ca8 d7bd 1d55 3a3e 5a34 c1bd 86c2 0fbc
000002c0: 7ab8 46be 8adc ecbd bb2d 35bd 3ba9 a4bc
000002d0: 5387 873d ca30 3bbe d461 993d d2b6 97bc
000002e0: b64d ecbd 5741 5a3d 69a6 d33d 284a c2bd
000002f0: 8170 59be 8be0 093d 4c50 1a3e 7672 febd
00000300: ae82 f53c 5bb1 883c de7a 6f3d ce36 963c
00000310: 9478 3a3d 56fb e63d ebad 8d3d 8445 eb3d
00000320: f9bb 85bd 769e babd c2a3 153e 71f2 45be
00000330: 8980 48bd 3248 19be cc97 03bc 41cb 2bbd
00000340: 7d87 a0bd d918 b03d 6573 41bd 8bc8 563e
00000350: 3216 51bd 2e28 2cbc cc23 04be 570b 053e
00000360: c09a e13d 4923 febd 209c 503e af7f a33c
00000370: 6b83 c53d 1654 65bd 5884 dabd d553 263d
00000380: 07b7 d53c 9c91 e6bd be6e 02be 63d2 583d
00000390: 6740 d73d fecc 933d a765 e83c 2156 44bc
000003a0: 828e 88bd 6846 a83c 86d5 22bd 381f 29bd
000003b0: 29be febc 6b01 f13d 1f5b 31bd 0684 81bd
000003c0: 6124 55bd 8179 743e d9f3 5c3c 23c4 b93c
000003d0: 7233 81bd c892 b93d 5a19 f33c 0406 95bd
000003e0: 7117 1bbc 0759 f9bd 31f8 1dbe aad9 12be
000003f0: 739e 06bd b336 19be cf35 c0bc 30fb 8f3d

fc1.bias f4 [64]
0.019946592 0.025993248 -0.05680135 -0.05108668 0.017743124 0.050461136 0.057292983 0.17533979
0.059439193 0.069539756 -0.060397357 0.023862157 0.012221808 0.14154509 0.037313964 0.08651365
0.07177681 0.011176932 -0.017505119 -0.09588614 0.15152217 0.02784311 0.04020105 -0.088636965
0.063824154 -0.14882584 -0.03264278 0.03059933 0.055931363 -0.106449835 0.08985977 0.12109963
0.16747667 -0.00909405 0.0820534 0.1004685 -0.026558671 -0.07825098 0.032273244 0.07840404
0.06686663 -0.11100968 -0.0016957477 0.027577545 0.0850422 0.07159757 -0.05096028 0.1059069
0.052213423 0.010875868 0.07615006 -0.022864468 -0.030044451 -0.016003994 0.15643458 -0.051592868
-0.10358764 0.11033025 0.053651698 0.10056495 -0.028604377 0.056419887 -0.09631782 -0.12608385
00000000: 0967 a33c cbef d43c 88a8 68bd 4440 51bd
00000010: 075a 913c 56b0 4e3d 0cac 6a3d 468c 333e
00000020: 8376 733d dc6a 8e3d 3863 77bd 927a c33c
00000030: fa3d 483c 32f1 103e 87d6 183d 122e b13d
00000040: b8ff 923d 731f 373c e566 8fbc f45f c4bd
00000050: a128 1b3e 3c17 e43c dba9 243d 4c87 b5bd
00000060: 3db6 823d cd65 18be 70b4 05bd 72ab fa3c
00000070: 4918 653d 5f02 dabd 6608 b83d 1503 f83d
00000080: 017f 2b3e 36ff 14bc 9d0b a83d 6ec2 cd3d
00000090: 9291 d9bc 0d42 a0bd f330 043d 4c92 a03d
000000a0: 5ff1 883d 0b59 e3bd da43 deba 4eea e13c
000000b0: 9b2a ae3d bfa1 923d babb 50bd b7e5 d83d
000000c0: bedd 553d b230 323c 90f4 9b3d 444e bbbc
000000d0: c81f f6bc cf1a 83bc 6330 203e 0b53 53bd
000000e0: c225 d4bd d3f4 e13d e2c1 5b3d fff4 cd3d
000000f0: ba53 eabc 8a18 673d 4742 c5bd 201c 01be

fc2.weight f4 [18, 64]
-0.2138875 0.20631695 0.0018059496 0.15480453 -0.23768474 0.15281023 0.113510676 -0.35780466
0.07933085 0.101898186 0.010486865 -0.17821299 -0.058792297 -0.016963294 -0.03650361 -0.008859517
0.17415154 0.019388974 -0.12693395 -0.15184121 -0.01395793 -0.018699216 0.002421361 -0.3079104
0.13659254 -0.17507364 0.1957035 -0.22117442 -0.12657614 -0.0362715 -0.03806907 0.11143118
-0.0016021649 -0.042675965 0.13492736 0.0631308 0.004379727 0.12529957 0.118710786 -0.007447645
0.043184683 -0.095813744 0.008028228 -0.2108125 0.12824233 -0.012075868 -0.19712923 0.1047492
-0.093104765 0.03721575 -0.021463241 -0.12103194 -0.0862712 0.021514658 0.087339684 -0.18712984
0.20437184 0.08761362 -0.007957641 -0.10865628 -0.04089509 -0.124936275 0.021778485 -0.06516892
0.09540771 -0.21401957 -0.17284985 0.11371284 -0.23814793 -0.0174945 -0.26698557 -0.11542078
-0.34924483 -0.15507326 0.08498451 -0.010585903 -0.15160316 -0.2738918 0.028024578 -0.10213891
-0.15981816 -0.18393873 -0.14283654 -0.2075497 0.025571069 -0.08220854 0.1181007 -0.110544704
-0.16802391 -0.15102294 -0.28527716 0.10861277 -0.064282425 -0.0034223571 -0.09501756 -0.14575617
-0.21309514 0.10171285 0.0049029314 -0.1867001 0.061377447 -0.13019381 -0.14895628 -0.06673798
-0.10856715 -0.058172483 -0.07068618 0.09536387 0.038390767 0.078203104 0.06416242 -0.01795387
0.08600043 0.079248734 0.017525282 0.07947288 -0.25612593 -0.045942888 0.09847356 -0.3249943
0.074311845 0.002777009 -0.29500332 0.100827016 -0.22858474 -0.36497855 -0.14787309 -0.12711252
-0.23161793 -0.029724399 0.15465108 -0.06413753 0.00989705 0.0014659979 0.09616345 0.071660966
0.09053511 -0.0704721 -0.06821541 -0.019181324 -0.052641932 0.022281863 -0.042728685 0.16998042
0.1713162 0.107750505 0.025552498 0.04686392 0.003364441 0.016160313 0.04669915 0.07305626
0.09325602 0.03852388 0.033659983 -0.28213766 0.07628394 -0.075656176 -0.06915966 0.038330525
0.090859264 -0.12756854 -0.0349206 0.10327339 -0.1715012 -0.093883835 0.08408113 0.088279076
0.114555165 0.037397776 -0.13849632 -0.2580781 0.017392788 -0.11066783 -0.13078532 0.0022499932
-0.10988044 -0.0029070769 -0.02517852 0.075528406 0.069482885 0.015574547 0.044143967 -0.025989851
-0.016141582 0.022949923 0.023355182 -0.1533068 0.03326204 0.039864987 -0.024550594 0.19333167
0.034766365 -0.10923864 -0.048772104 -0.11264941 -0.12392407 -0.08169449 -0.025973566 0.0026598005
0.091316 -0.015569813 -0.1526961 0.005417489 0.10572588 0.098356254 -0.17184278 0.079645425
-0.024720939 -0.10636778 0.1340012 0.13613418 -0.16761425 -0.14132334 -0.12491466 0.050858535
-0.18265334 -0.042514287 0.08816685 -0.12842056 0.10720374 0.106218174 -0.12731412 -0.07065744
0.0029549683 -0.123759665 -0.037575096 -0.044712566 -0.17396972 -0.10939221 -0.09911128 0.121485874
0.13416976 -0.1416781 -0.063597105 -0.09428916 -0.06817343 -0.114794396 -0.15106514 0.047708545
-0.059698597 0.026722606 0.02702539 0.031975027 0.00058004033 -0.19701599 0.10162326 0.0054475004
-0.14956145 -0.031373557 -0.053630605 0.08357868 0.092802405 0.045155086 -0.141703 -0.008466648
00000000: 5305 5bbe c044 533e 9db5 ec3a 1485 1e3e
00000010: a163 73be 497a 1c3e 4978 e83d 2c32 b7be
00000020: 3678 a23d ffaf d03d 1ad1 2b3c 777d 36be
00000030: 31d0 70bd 9bf6 8abc cf84 15bd 8227 11bc
00000040: c854 323e a0d5 9e3c f9fa 01be 437c 1bbe
00000050: cdaf 64bc 192f 99bc b2af 1e3b 6fa6 9dbe
00000060: eade 0b3e 8146 33be 8066 483e 8c7b 62be
00000070: 2d9d 01be 6d91 14bd 50ee 1bbd 0836 e43d
00000080: bcff d1ba fecc 2ebd 662a 0a3e b94a 813d
00000090: d083 8f3b 884e 003e a41e f33d 600b f4bb
000000a0: 6ce2 303d ff39 c4bd d488 033c 3bdf 57be
000000b0: f551 033e ddd9 45bc 3fdc 49be c086 d63d
000000c0: b6ad bebd 8b6f 183d aed3 afbc 98df f7bd
000000d0: f4ae b0bd 823f b03c 26df b23d f79e 3fbe
000000e0: da46 513e c56e b33d c460 02bc 2f87 debd
000000f0: 9c81 27bd 97de ffbd cb68 b23c 4877 85bd
00000100: 1e65 c33d f227 5bbe 8dff 30be 47e2 e83d
00000110: 0ddd 73be a050 8fbc 55b2 88be bb61 ecbd
00000120: 38d0 b2be 86cb 1ebe 5c0c ae3d 7f70 2dbc
00000130: dc3d 1bbe 8c3b 8cbe cd93 e53c 342e d1bd
00000140: 5fa7 23be 6f5a 3cbe be43 12be e987 54be
00000150: 6b7a d13c f35c a8bd c8de f13d 4365 e2bd
00000160: 760e 2cbe c2a5 1abe d90f 92be 5f70 de3d
00000170: 81a6 83bd a049 60bb 9198 c2bd 1b41 15be
00000180: 9d35 5abe d44e d03d c5a8 a03b 502e 3fbe
00000190: eb66 7b3d 8751 05be ff87 18be ecad 88bd
000001a0: 7458 debd 4546 6ebd eac3 90bd 224e c33d
000001b0: a33f 1d3d f328 a03d 9667 833d ff13 93bc
000001c0: fe20 b03d 294d a23d 2e91 8f3c adc2 a23d
000001d0: f022 83be 9c2e 3cbd 81ac c93d a765 a6be
000001e0: cf30 983d 7bfe 353b ad0a 97be 657e ce3d
000001f0: 1e12 6abe 78de babe 0b6c 17be c929 02be
00000200: 402d 6dbe 9580 f3bc da5c 1e3e 8a5a 83bd
00000210: 3d27 223c ba26 c03a 58f1 c43d fcc2 923d
00000220: 796a b93d ad53 90bd 85b4 8bbd 2722 9dbc
00000230: 119f 57bd 7488 b63c 4604 2fbd 590f 2e3e
00000240: 846d 2f3e 4cac dc3d 7953 d13c 62f4 3f3d
00000250: f47d 5c3b a262 843c 9c47 3f3d 859e 953d
00000260: 03fd be3d 37cb 1d3d 0ddf 093d 5974 90be
00000270: c13a 9c3d a0f1 9abd 94a3 8dbd 7800 1d3d
00000280: 6c14 ba3d 54a1 02be e708 0fbd 0081 d33d
00000290: 039e 2fbe 2b46 c0bd ba32 ac3d a9cb b43d
000002a0: e69b ea3d 692e 193d fbd1 0dbe d022 84be
000002b0: 527b 8e3c d1a5 e2bd 96ec 05be 9f74 133b
000002c0: ff08 e1bd a884 3ebb 2f43 cebc a3ae 9a3d
000002d0: 0b4d 8e3d 632c 7f3c 4ed0 343d abe8 d4bc
000002e0: 5a3b 84bc 7a01 bc3c 5e53 bf3c 75fc 1cbe
000002f0: c73d 083d 7849 233d 541e c9bc bdf8 453e
00000300: 2d67 0e3d 82b8 dfbd 42c5 47bd bcb4 e6bd
00000310: e7cb fdbd 714f a7bd 84c6 d4bc 0c50 2e3b
00000320: e203 bb3d 8718 7fbc 5e5c 1cbe 3185 b13b
00000330: cf86 d83d 016f c93d 8ef7 2fbe 241d a33d
00000340: 9183 cabc 5ad7 d9bd 9c37 093e c266 0b3e
00000350: 12a3 2bbe 11b7 10be 42d3 ffbd 0a51 503d
00000360: 7a09 3bbe 7623 2ebd d290 b43d ae80 03be
00000370: a28d db3d ea88 d93d a25e 02be d9b4 90bd
00000380: 24a8 413b b575 fdbd 58e8 19bd 8624 37bd
00000390: 1e25 32be 0609 e0bd dbfa cabd 96cd f83d
000003a0: cc63 093e 1014 11be 333f 82bd ad1a c1bd
000003b0: 839e 8bbd 5319 ebbd d2b0 1abe 096a 433d
000003c0: 8486 74bd 5ee9 da3c 5a64 dd3c 3ff8 023d
000003d0: d90d 183a 8fbe 49be db1f d03d f280 b23b
000003e0: a326 19be 8f81 00bd c4ab 5bbd 4d2b ab3d
000003f0: 300f be3d 8af4 383d 971a 11be b2b7 0abc

fc2.bias f4 [18]
0.068277374 -0.033404123 -0.121875994 -0.004028553 -0.04870356 -0.006691664 -0.06119984 0.053329222
-0.023298379 -0.1106838 0.0034597074 0.036458332 -0.045627743 0.096598305 -0.16915572 0.061771307
0.14581499 0.08116065
00000000: 02d5 8b3d c3d2 08bd 1f9a f9bd f401 84bb
00000010: 627d 47bd bf45 dbbb afac 7abd be6f 5a3d
00000020: 3edc bebc 30ae e2bd 42bc 623b 5555 153d
00000030: 28e4 3abd 55d5 c53d 2837 2dbe e903 7d3d
00000040: 8650 153e 8e37 a63d
