model_storage/ch6/surname_classification/model.pth (torch, 99115 bytes, 9 tensors)

emb.weight f4 [80, 100]
000000 00 00 00 00 00 00 00 00 00 00 00 00 00 00 00 00
       0.0 0.0 0.0 0.0
000010 00 00 00 00 00 00 00 00 00 00 00 00 00 00 00 00
       0.0 0.0 0.0 0.0
000020 00 00 00 00 00 00 00 00 00 00 00 00 00 00 00 00
       0.0 0.0 0.0 0.0
000030 00 00 00 00 00 00 00 00 00 00 00 00 00 00 00 00
       0.0 0.0 0.0 0.0
000040 00 00 00 00 00 00 00 00 00 00 00 00 00 00 00 00
       0.0 0.0 0.0 0.0
000050 00 00 00 00 00 00 00 00 00 00 00 00 00 00 00 00
       0.0 0.0 0.0 0.0
000060 00 00 00 00 00 00 00 00 00 00 00 00 00 00 00 00
       0.0 0.0 0.0 0.0
000070 00 00 00 00 00 00 00 00 00 00 00 00 00 00 00 00
       0.0 0.0 0.0 0.0
000080 00 00 00 00 00 00 00 00 00 00 00 00 00 00 00 00
       0.0 0.0 0.0 0.0
000090 00 00 00 00 00 00 00 00 00 00 00 00 00 00 00 00
       0.0 0.0 0.0 0.0
0000a0 00 00 00 00 00 00 00 00 00 00 00 00 00 00 00 00
       0.0 0.0 0.0 0.0
0000b0 00 00 00 00 00 00 00 00 00 00 00 00 00 00 00 00
       0.0 0.0 0.0 0.0
0000c0 00 00 00 00 00 00 00 00 00 00 00 00 00 00 00 00
       0.0 0.0 0.0 0.0
0000d0 00 00 00 00 00 00 00 00 00 00 00 00 00 00 00 00
       0.0 0.0 0.0 0.0
0000e0 00 00 00 00 00 00 00 00 00 00 00 00 00 00 00 00
       0.0 0.0 0.0 0.0
0000f0 00 00 00 00 00 00 00 00 00 00 00 00 00 00 00 00
       0.0 0.0 0.0 0.0
000100 00 00 00 00 00 00 00 00 00 00 00 00 00 00 00 00
       0.0 0.0 0.0 0.0
000110 00 00 00 00 00 00 00 00 00 00 00 00 00 00 00 00
       0.0 0.0 0.0 0.0
000120 00 00 00 00 00 00 00 00 00 00 00 00 00 00 00 00
       0.0 0.0 0.0 0.0
000130 00 00 00 00 00 00 00 00 00 00 00 00 00 00 00 00
       0.0 0.0 0.0 0.0
000140 00 00 00 00 00 00 00 00 00 00 00 00 00 00 00 00
       0.0 0.0 0.0 0.0
000150 00 00 00 00 00 00 00 00 00 00 00 00 00 00 00 00
       0.0 0.0 0.0 0.0
000160 00 00 00 00 00 00 00 00 00 00 00 00 00 00 00 00
       0.0 0.0 0.0 0.0
000170 00 00 00 00 00 00 00 00 00 00 00 00 00 00 00 00
       0.0 0.0 0.0 0.0
000180 00 00 00 00 00 00 00 00 00 00 00 00 00 00 00 00
       0.0 0.0 0.0 0.0
000190 69 39 01 3d 43 ed 3d bf e0 77 98 be 03 9f 8c 3c
       0.03154889 -0.7419016 -0.29778957 0.017165666
0001a0 2f 7a 35 be bf a1 08 be 94 81 96 3e 2d 46 b1 3f
       -0.1772239 -0.13342951 0.29395735 1.3849541
0001b0 1c a1 f7 3d a4 ac 22 40 30 f5 23 bf 60 ac fc bf
       0.12091276 2.5417871 -0.64046 -1.9740105
0001c0 4d bd a8 be d7 65 02 3c b9 1d 6d 3f 1e 39 f1 bf
       -0.32956925 0.007958851 0.9262348 -1.8845556
0001d0 fb f7 2a 3e 8c d0 ea 3e 0e 13 e2 bf 31 03 16 3f
       0.1669616 0.45862234 -1.7662065 0.5859862
0001e0 cd 21 e0 3f d0 ba 8f 3e 90 36 9f 3e b0 5c 27 bf
       1.7510315 0.28072214 0.31096315 -0.65375805
0001f0 33 5a 28 bf ce 0b a3 3e b3 b1 0c bf a5 82 bb bf
       -0.65762633 0.31844944 -0.5495865 -1.4649245
000200 57 8d 03 c0 4b ea e9 3f ff d9 a6 3f b4 77 e6 be
       -2.0555017 1.8274626 1.3035277 -0.450132
000210 7a 6e ac 3f 09 72 d8 3f 68 dd fe bd c9 57 d7 bf
       1.3471215 1.6909801 -0.12444574 -1.6823665
000220 1d f9 d9 bc 1a a7 97 3d 98 9e 86 3f 69 8a 2d 3f
       -0.026608044 0.07404919 1.0517149 0.6778932
000230 da 01 9d 3e ae 4a 3f bf a4 55 3e 3f 88 3d 63 3f
       0.30665475 -0.7472333 0.7434943 0.88765764
000240 5c 65 12 40 2d 0d 76 3f e4 cc c3 bf 65 1b 95 be
       2.2874365 0.96113855 -1.5296903 -0.29122463
000250 af 5f e9 bd 16 99 a0 be 92 1a 21 bf 97 ba 91 3f
       -0.11395203 -0.31366795 -0.6293117 1.1385068
000260 21 c4 7d bf a6 11 2e 3e a8 c8 9c 3f fb 2a 70 be
       -0.99127394 0.1699892 1.2248735 -0.23453896
000270 09 51 87 bf 14 7e 27 bf 1f a2 cb 3f e0 11 33 bf
       -1.0571605 -0.65426755 1.590885 -0.6994915
000280 f1 63 65 bf 4e 8f 87 3d 1d 86 66 bd 99 d6 15 40
       -0.89605623 0.0661913 -0.056280244 2.341223
000290 ba 4c 2e c0 ee 79 02 3f 05 81 50 bf 04 f2 7b be
       -2.723433 0.509673 -0.8144687 -0.2460404
0002a0 67 bc 93 3b 17 09 03 40 a3 53 21 be 2a eb 5f be
       0.0045085433 2.0474298 -0.15754561 -0.21867052
0002b0 0c 0c ad bf 0e 9f 6a bd 27 4f ed bf 13 44 b1 bf
       -1.3519301 -0.057280593 -1.853978 -1.38489
0002c0 3a d8 b0 be ec cc 94 bf c5 f2 13 3e 9c 50 2a 3e
       -0.34539968 -1.1625037 0.14448078 0.16632313
0002d0 da 2d 40 3f b3 c5 69 3f 91 26 dd bf ee 1b a7 3f
       0.75069964 0.9131729 -1.7277395 1.3055398
0002e0 37 96 75 3f dd ac 87 3f bd 3e 21 3f 77 b1 a4 bf
       0.95932335 1.0599629 0.62986356 -1.2866658
0002f0 c4 fe 2f bf 94 d8 08 40 ea eb 02 3f 24 0b 9c 3f
       -0.68748116 2.1382189 0.51141226 1.21909
000300 49 90 43 3e 2f 5d af be 3b d3 e5 3f 58 1b b2 3f
       0.19098009 -0.3425078 1.7955087 1.3914595
000310 09 0d 8a 3f 78 6d 1d bf cd ee ea be 79 46 11 3f
       1.0785228 -0.6149516 -0.45885316 0.5674816
000320 89 8d e8 3d f3 d0 c6 bf e4 31 a0 3f 6f eb d3 3e
       0.11355121 -1.5532516 1.2515225 0.4139056
000330 75 44 8e bf 35 ba 89 bf 24 04 0c be 8b 19 93 3c
       -1.1114641 -1.0759951 -0.13673455 0.017956516
000340 9b 0b b2 3e ea ac 2d bf 52 42 c6 be 91 64 c4 be
       0.3477448 -0.6784197 -0.38722473 -0.38357976
000350 6b 36 53 3f de c5 24 3f 24 0f 8e 3f f8 6b 51 3f
       0.8250491 0.6436442 1.109837 0.8180537
000360 6e 96 c3 3e 59 eb 5b 3f 0a 85 97 be f5 1d 48 bf
       0.38200706 0.8590599 -0.29593688 -0.7817071
000370 1c c7 19 bf c9 14 e5 3e c5 a0 f3 be 77 6f fa be
       -0.6006944 0.4474242 -0.47583595 -0.48913166
000380 23 6d f8 be ca dd 2d be 93 9b 22 be d1 22 82 be
       -0.48520765 -0.16979137 -0.1587966 -0.25417188
000390 be f8 2d 3e 3f b4 2b 3f 77 e1 fe bd 68 89 13 bf
       0.16989419 0.6707191 -0.12445348 -0.5763154
0003a0 d1 8f 62 3f c6 a4 b7 bf 4e f4 40 3f 17 a1 03 c0
       0.88500696 -1.434716 0.7537278 -2.0567071
0003b0 b0 9c 8f bf 68 10 bc 3d 12 ca f0 be 41 cb f9 be
       -1.1219692 0.09182817 -0.47029167 -0.48787883
0003c0 40 90 ce 3f df f1 96 3c 5b 53 5e bf 7b 67 86 bf
       1.6137772 0.01842588 -0.8684594 -1.050033
0003d0 5b d5 e9 3e 98 27 86 be b2 12 3e bb 26 5e 74 bf
       0.4567059 -0.26202083 -0.0029002842 -0.9545616
0003e0 83 cc 0d be 53 08 83 3e e4 e9 40 bf 99 b9 aa bf
       -0.13847546 0.25592288 -0.7535689 -1.333789
0003f0 7f 38 83 3f 49 c4 e7 bf 29 26 f1 be 7c 34 9c 3f
       1.0251616 -1.8106776 -0.47099426 1.2203517

rnn.rnn_cell.weight_ih f4 [64, 100]
000000 0d e7 41 bd 17 34 a8 3d 43 1d 1f 3c 06 80 02 bd
       -0.047339488 0.0821306 0.009711566 -0.031860374
000010 8b 87 0d be d9 78 d2 3d fd 17 8e bd 99 e4 a1 3d
       -0.13821237 0.10276956 -0.06938169 0.0790493
000020 75 fe 72 bd ba 49 ca bd 17 93 be 3b 1d 39 ec 3d
       -0.0593247 -0.098773435 0.0058158743 0.11534331
000030 d4 93 ff bd db 36 10 bd e9 f8 34 be e0 97 31 be
       -0.12479368 -0.035208564 -0.17673077 -0.17343092
000040 1a d8 29 bd 3e e4 8b 3d 75 d3 0a bd 72 13 08 bd
       -0.041465856 0.06830643 -0.033893067 -0.03322167
000050 2d 50 49 bd 41 31 27 3d 96 0d 21 bc c2 f6 54 b9
       -0.049148727 0.040818457 -0.009829899 -0.0002030982
000060 0b c5 6e 3d a8 53 51 bc d1 8d c4 3d 3c 1b d2 bd
       0.058293384 -0.012776293 0.09597362 -0.10259101
000070 fd 27 d0 bd aa 46 24 3c 98 c1 b5 3d 5b 72 db 3d
       -0.10163877 0.010026613 0.08874816 0.10715171
000080 55 ee 7f bd 92 67 48 3d 27 f8 05 be 24 b7 10 3e
       -0.06248315 0.048926897 -0.13082944 0.14132363
000090 c9 e9 23 3e 00 4f 4f 3d 9e bb 13 3e 0f d9 d6 3d
       0.1600715 0.05061245 0.14427039 0.104906194
0000a0 31 94 c2 bd 95 c8 08 be 31 f2 d4 bd 10 f1 b8 3c
       -0.095009215 -0.13357766 -0.10397757 0.022575885
0000b0 41 4e 02 3e b5 7e f6 3d 30 4e 8b 3c 8a 16 c9 3d
       0.12725164 0.12035886 0.017005056 0.09818752
0000c0 5a a4 33 bc 38 dc 57 bd d5 5d 48 bd cb 66 b0 bd
       -0.010964477 -0.05270025 -0.04891761 -0.08613356
0000d0 90 fd 52 bd b6 e2 5a 3d 0a 6a 98 bd a3 3e 92 bd
       -0.051511347 0.053438865 -0.074421 -0.07140853
0000e0 fe e4 fa 3c 18 74 82 3d 25 ce 56 bd 7a 39 93 3d
       0.03062677 0.063697994 -0.05244269 0.07188697
0000f0 c3 c9 5b 3b ad 51 aa 3d b1 fa fc 3d 0b 81 ca 3a
       0.0033537007 0.0831636 0.12352503 0.0015449835
000100 dc a7 84 bd 33 f8 4c 3d 5a 8e f8 bd 5d e6 39 3d
       -0.06477329 0.05004139 -0.121365264 0.045385707
000110 50 05 9b bd 2e 7d 17 be 19 ab 89 bd 80 56 9d bd
       -0.07569373 -0.14793846 -0.067220874 -0.07682514
000120 a1 9d 8d bd 92 54 75 bd 72 11 48 bc 61 2a 92 3d
       -0.06914831 -0.059895106 -0.012211191 0.071369894
000130 29 f8 2e be db 99 b6 3d 36 6b 7c bd 12 23 93 3a
       -0.17086853 0.08916064 -0.06162568 0.0011225662
000140 9f 92 0f 3e 1c bc 51 3d 89 84 e5 bd d0 7c 31 3e
       0.14020775 0.051204786 -0.1120692 0.17332768
000150 27 c5 c3 3b fc d2 d2 3d bd 7a f0 bc c9 61 32 3d
       0.00597443 0.10294148 -0.029355401 0.043550286
000160 dd e2 06 bd 6b 9c 6a 3b f7 ae 01 3e df 83 24 3d
       -0.032931197 0.0035798799 0.126644 0.040164825
000170 d9 02 5d 3d 0c b5 91 bd 10 0d 2a be 64 fe e3 bd
       0.053957794 -0.0711461 -0.16606545 -0.111325055
000180 d8 da 9d 3d 78 89 7d bd 2f 65 c9 3d 7f 4b 72 3d
       0.07707757 -0.06189868 0.09833752 0.05915403
000190 68 43 e2 3d d0 8f 17 3d 95 79 d4 bc 3d c4 50 3b
       0.11048013 0.037002385 -0.025936881 0.0031855248
0001a0 c9 dd 4f be b9 64 fd bc 83 04 04 bc ed d5 f0 3c
       -0.20299448 -0.030931817 -0.008057716 0.029398883
0001b0 1a df 1f bd fc 65 cf 3c 91 76 aa 3d ed fb 73 bd
       -0.039031126 0.025317185 0.08323396 -0.059566427
0001c0 67 dd 82 3d f6 95 57 bd 3f ba 7c 3d 69 fa 1c bc
       0.063898854 -0.05263325 0.061701056 -0.009581187
0001d0 79 d7 c5 3d 87 d5 f9 bc 5a eb 71 bd 73 96 28 3b
       0.09660239 -0.030497326 -0.05906234 0.002572444
0001e0 f1 90 80 bd 49 39 02 be 47 ac 30 3d a8 98 6a 3d
       -0.062776454 -0.12717165 0.043133046 0.05727449
0001f0 2a 3c 57 3c 44 df 9d 3d f9 75 e8 bd b6 ba fe bd
       0.013136903 0.077086 -0.113506265 -0.12437956
000200 8a b5 05 be 85 26 a7 bd a1 09 42 3e d1 6c 9b 3d
       -0.13057533 -0.08161644 0.18948986 0.075891145
000210 28 45 8c 3d b5 de 08 bd a2 14 f0 3d 26 8d ee 3d
       0.06849128 -0.033415515 0.117226854 0.11648016
000220 d3 41 12 3e 3d 81 57 bc 18 45 14 be 61 b2 1f 3d
       0.14282922 -0.013153371 -0.14479482 0.038988475
000230 5f b2 65 3c 79 fa 07 3d 04 84 a4 bd 02 f0 02 3d
       0.014019578 0.033197854 -0.080329925 0.03196717
000240 70 36 42 be 8f 0d 6f be 1e 94 8d bd c4 19 ee bd
       -0.18966079 -0.23345016 -0.06913017 -0.11626008
000250 80 14 a6 3b 94 59 fe bc 9f fc ba bd 7b 43 34 be
       0.0050683618 -0.031048574 -0.09130215 -0.17603867
000260 a7 59 07 3e 58 9a d2 bd 0d 9c 9f 3d 67 0a 66 3e
       0.13217793 -0.10283345 0.07793436 0.22464906
000270 00 44 31 3e 24 83 85 bd e8 bc a7 bd f9 22 32 bd
       0.17311096 -0.06519154 -0.08190328 -0.043490384
000280 5d 4e 06 be b4 a4 a7 bc 38 ea 4c be eb f8 e5 3d
       -0.1311583 -0.020464279 -0.20011222 0.11229118
000290 95 1d 25 bc d5 a6 a6 3c b3 b1 87 3d 49 b0 cb 3d
       -0.010077854 0.020343224 0.0662569 0.09945733
0002a0 0d 33 25 be a9 ac bd bc ee 31 ee 3d fc 1d 1e 3e
       -0.16132756 -0.02315362 0.11630617 0.15441126
0002b0 d8 bc bd 3d 63 ff 9f bc 6c 3d 63 bd 0d e1 a7 3d
       0.09264535 -0.019530958 -0.0554785 0.08197222
0002c0 09 5a 22 3d 0a 6f 0c 3c a2 2e a4 bb d6 0c 3a bd
       0.039636645 0.008571396 -0.005010442 -0.045422398
0002d0 38 c9 95 3d 46 a1 09 3e 21 fb 51 3d ad bc 7e be
       0.0731377 0.13440427 0.051264886 -0.24876662
0002e0 5b 41 70 bd 9c 1e bf bd 63 72 14 3e 1b 91 14 be
       -0.058656078 -0.0933201 0.1449676 -0.14508478
0002f0 67 68 fa bd bf 1b e0 3d 59 b9 95 bd 06 c8 b0 bc
       -0.122269444 0.10942792 -0.07310743 -0.021579754
000300 06 a2 0c 3d 6f ff b5 3b d0 a2 27 3d c7 f6 2d 3d
       0.034334205 0.0055541317 0.040926754 0.042471673
000310 00 89 b7 3d 40 fe 2e be e3 2b 2b be 8d 32 12 3e
       0.089616776 -0.17089176 -0.1671596 0.14277096
000320 3e 39 2d 3d 82 63 2f 3d c8 4a 06 3c 9a 3a 3e 3d
       0.04229092 0.042819507 0.00819654 0.046442606
000330 8e a0 8c bb 1c 1d de 3d 39 70 ad 3d 23 8c d3 bd
       -0.0042916005 0.10845396 0.084686704 -0.10329463
000340 33 ca 90 bd d9 ac 1b 3c 04 a5 65 bd 19 ed a6 bd
       -0.070698164 0.009501659 -0.056065574 -0.081506915
000350 25 0a e0 3d 71 9c 3b bd 70 b6 9d 3d fb 30 73 bb
       0.10939435 -0.04580349 0.07700813 -0.0037108052
000360 c5 d8 09 3e 33 0f e4 bd 8b c6 55 bd 8e 36 ec bc
       0.13461597 -0.111357115 -0.0521913 -0.028834607
000370 4b c1 29 bd be a2 82 3d 0b d8 59 3b bf e6 d0 3d
       -0.041444104 0.06378697 0.0033240344 0.10200261
000380 6d 00 6c 3d e4 c7 9f 3d 16 c7 b5 3d 3e f9 b3 3d
       0.057617594 0.07801798 0.08875863 0.087877735
000390 62 3f 1e 3c c6 3d bb bd fc d5 0a 3b d6 a1 0b bd
       0.009658666 -0.09142642 0.0021184674 -0.034089886
0003a0 62 a1 b3 3b 80 9d 4c bd a4 68 eb bb 22 2c 2a 3e
       0.005481885 -0.04995489 -0.007184105 0.16618398
0003b0 f4 f0 11 be 85 4e e7 3c f8 86 09 3e ca e1 a4 bb
       -0.14252073 0.028235683 0.13430393 -0.005031799
0003c0 d5 73 19 be 26 fa d6 bd 4e 0b b6 3d db 7f eb 3c
       -0.14985593 -0.10496931 0.08888875 0.02874749
0003d0 57 2c ac bd b9 fe ec bd f7 0b b8 3c f6 c5 ca bc
       -0.08406895 -0.11572022 0.022466643 -0.024752598
0003e0 cc 4e 3a be 6e 0d 0d 3d 23 26 2f be ae 29 1e 3e
       -0.18194121 0.034436636 -0.17104392 0.15445587
0003f0 97 72 17 bc d3 39 07 bd 93 a6 d2 3d 87 1e 68 be
       -0.009243629 -0.03301413 0.10285678 -0.22667895

rnn.rnn_cell.weight_hh f4 [64, 64]
000000 12 d5 6c 3e 0c 29 8f 3d 00 df 70 bb ea a8 b4 bd
       0.23128155 0.06990251 -0.0036754012 -0.0882128
000010 17 4f 94 be 09 28 40 3d c5 d2 1a be 45 c1 6a 3e
       -0.2896659 0.04691318 -0.15119465 0.22925289
000020 af 9a 62 bd f5 fa 94 3d ac f2 f5 3d ec bb 22 bd
       -0.0553233 0.07274429 0.120091766 -0.039729998
000030 f7 e5 4a be 2a a8 dd 3d 28 8c 5b 3d 67 eb 9e 3e
       -0.19814287 0.108230904 0.05360046 0.31038973
000040 fb 9a d8 3d 00 da 96 3d 56 cf 0f 3e 97 1a b4 3d
       0.10576435 0.07365799 0.14043936 0.08794134
000050 d4 ad a0 bd 4b 9e 37 3e 45 a0 8c bd 5c eb a1 bd
       -0.07845655 0.17931478 -0.068665065 -0.07906219
000060 11 de 74 3b c2 e8 a9 bd 96 26 11 be 6c 8f 13 3e
       0.0037363807 -0.08296348 -0.14174876 0.1441018
000070 5f 67 65 be ff dd 65 3e 2f 56 8a bd 78 b1 9c 3c
       -0.22402714 0.22447966 -0.067547195 0.019127592
000080 1a 2b 52 be ef 8e 72 3e fe 7f 40 bc e6 29 ab bd
       -0.20524254 0.23687337 -0.011749266 -0.08357601
000090 65 58 a4 3b 5a fa 6d 3e a1 86 1d 3d 13 02 c4 bd
       0.0050154203 0.23240033 0.03845847 -0.09570708
0000a0 77 d1 97 3d 8f 3c 03 be 8d 90 f7 bd 2a fd f9 3d
       0.07412999 -0.1281607 -0.12088118 0.1220649
0000b0 c5 4c d2 3d 32 71 80 bd 33 25 94 bd 8a c4 13 be
       0.10268549 -0.0627159 -0.07233658 -0.14430442
0000c0 e8 9f 88 be b1 41 ff bb c5 10 e7 bd aa cc da 3d
       -0.266845 -0.0077898134 -0.112824954 0.10683568
0000d0 3e 69 11 be 68 b7 8e bd 66 38 48 bc ff c0 37 bc
       -0.14200303 -0.06968576 -0.012220478 -0.011215447
0000e0 27 8f 8b bd 50 7d 83 3e 35 9f 12 3d 43 a7 b6 3d
       -0.068144135 0.25681543 0.035796363 0.089186214
0000f0 8e b8 0d be 54 94 4e 3e 89 64 96 bc 9d 24 90 bd
       -0.13839933 0.2017377 -0.018358486 -0.070382334
000100 5f 71 c4 3d 82 33 84 be c3 22 b2 3e 8d 93 5a bd
       0.09591936 -0.25820547 0.34792146 -0.05336337
000110 5d e7 dd 3d 37 90 d6 bc 1d 9b 0a 3e 0d 8e dc 3d
       0.10835145 -0.026191814 0.13535734 0.107692815
000120 70 d9 c2 3d 95 47 46 bd 6a 67 be bd 9b 22 e4 3d
       0.09514129 -0.04840811 -0.092970684 0.11139413
000130 ce 05 9b 3d 9c 40 3d be 37 82 f5 3d b8 08 a0 3b
       0.075694665 -0.18481678 0.11987727 0.004883852
000140 7f 7b cd 3d 79 92 5d be b6 8b 70 be 91 a7 31 be
       0.10033321 -0.21637906 -0.23490795 -0.17349078
000150 57 73 7f bd 79 2f 83 be e9 1d a1 3d 25 e9 06 be
       -0.062365856 -0.25622156 0.07867033 -0.13174875
000160 a4 63 4b be f8 43 ad bd da b9 69 bd 25 f2 97 3d
       -0.19862229 -0.0846023 -0.057062007 0.07419232
000170 89 d1 c5 3d 77 b1 55 bb 15 97 e6 bb 56 7a 62 3c
       0.09659106 -0.0032606998 -0.0070370534 0.0138231125
000180 e0 ea 1a be 2f f0 97 bc 7c 79 dc 3d 5a 28 77 3e
       -0.1512866 -0.018547146 0.10765359 0.24136487
000190 78 36 47 bd 4e 38 a6 3c 84 0e c6 bd d1 e5 e3 3c
       -0.04863593 0.02029052 -0.096707374 0.027819546
0001a0 42 eb 14 3e 89 84 10 3e 14 70 26 bd 90 04 36 be
       0.14542869 0.14113058 -0.04063423 -0.17775178
0001b0 f3 c2 9c bd 06 bf 3d be 3c cd 27 be 92 e6 94 3e
       -0.07654371 -0.18529901 -0.16386884 0.2908216
0001c0 cf f5 00 3e 0d bc 50 be f9 94 0c 3e a1 47 a8 3d
       0.12593769 -0.20384236 0.13728704 0.08216787
0001d0 4a bd 8c bd 02 ad 24 be be 0d aa bd 4a f0 20 3d
       -0.068720415 -0.16081622 -0.08303402 0.039291658
0001e0 d8 e8 ea bd 78 f8 b8 bd a3 1b ad 3c 4d 1f c1 bd
       -0.11470193 -0.09031767 0.021131342 -0.09429798
0001f0 06 34 7e 3c 69 a0 8d be eb 05 20 3e a6 2c c2 bc
       0.015515333 -0.27661446 0.15627258 -0.02370293
000200 1c ec c5 bc fe 43 33 be 65 ca 75 bc bb cc 3c 3b
       -0.024160437 -0.17506406 -0.015001868 0.0028808552
000210 a5 89 32 be 75 00 26 3e 68 12 fa 3d a7 25 e1 bd
       -0.1743532 0.16211112 0.12210542 -0.1099351
000220 59 03 82 3d 98 2c 12 bd 15 2c 47 bd aa f8 83 3e
       0.06348295 -0.03568706 -0.048626024 0.25775653
000230 8f bc c5 3b 56 c4 ce 3d 04 4c f1 bd eb 14 1e 3d
       0.006034441 0.10096042 -0.11782077 0.038594168
000240 ed ed 48 3d c8 98 3d be 05 a9 6d 3d f7 4f a7 3d
       0.04905503 -0.18515313 0.058022518 0.08169549
000250 9a 93 9e bc 1b 63 cf bc 03 a4 a8 3d c7 21 f4 3d
       -0.019357491 -0.025315812 0.08234408 0.11920505
000260 00 ca 6e be 2b 8d 29 be ca 2d e9 3d fc 32 70 3d
       -0.23319244 -0.16557758 0.11385687 0.058642372
000270 b3 85 f4 3d df 88 a1 bd c5 a1 7d bc c6 4b 7a be
       0.119395636 -0.07887434 -0.015480463 -0.24442968
000280 ce 24 e0 bd ee 0a 01 3d a7 8d aa bd 6c df 74 3e
       -0.1094452 0.031504564 -0.08327799 0.23913354
000290 aa d3 c5 3d 12 29 15 3d b8 f7 9e bd 20 0b ad 3b
       0.09659512 0.03641612 -0.07762092 0.005280867
0002a0 e0 94 2d 3e db d9 0b 3d 49 1b 9a 3d 0a 36 ae bd
       0.16951323 0.03414331 0.075247355 -0.08506401
0002b0 b9 e3 25 bd 58 e0 92 be f6 b0 ed bd fb 05 47 3e
       -0.040500376 -0.28686786 -0.11606018 0.19435875
0002c0 ce 15 02 3e 3c 6d 6f bd e0 0c bc bd 0a 23 4a 3e
       0.1270363 -0.058453783 -0.09182143 0.19739929
0002d0 1f 43 10 be f8 fc 8c 3d 68 90 c7 bb 61 cd 28 3d
       -0.14088105 0.068841875 -0.0060902126 0.04121149
0002e0 a4 ea 53 3d a6 e6 8b 3d d0 4e 68 bd 60 c1 ac bd
       0.051737443 0.06831102 -0.056715786 -0.08435321
0002f0 bb 82 0c 3d b6 79 16 be 54 3d 4e 3d 21 d4 f9 bd
       0.03430436 -0.14694867 0.050351456 -0.121986635
000300 cc 5c a3 bd 2c d0 6b bd 8f 8f 90 3e e4 3d fa 3c
       -0.07976684 -0.057571575 0.28234527 0.03054709
000310 a8 1b 3d 3e 6f 69 c0 3d e4 a1 8f 3e 49 6d 25 be
       0.18467581 0.0939511 0.280532 -0.1615497
000320 5b e0 2b bd 85 35 85 ba 5d 07 36 be 5a 99 84 3d
       -0.04196201 -0.0010163045 -0.17776246 0.06474562
000330 c8 93 8e 3d 34 20 36 3e 0f 8c d5 3d 2f 57 4c 3c
       0.06961781 0.17785722 0.10427105 0.012471958
000340 65 b1 3b 3e b2 f0 ea bc be 99 1d be 87 b7 5b be
       0.1832939 -0.028679226 -0.15390679 -0.21456729
000350 fc 9d 9d bd d1 b8 94 bd de 63 a6 bd 93 46 11 be
       -0.07696149 -0.072618134 -0.08124517 -0.14187078
000360 22 ba 8d be e7 6e 42 3d c1 6d f4 3d 73 00 fe bb
       -0.2768107 0.047469046 0.119349964 -0.0077515184
000370 35 c5 48 bc 65 1f 0b 3e 85 d8 65 be 30 ed 53 3d
       -0.012254049 0.13586195 -0.22445877 0.05173987
000380 6a 97 22 be ee 17 95 bd bb 96 45 3e ae c4 e5 3c
       -0.15878072 -0.07279955 0.1929578 0.028047886
000390 f0 9c 3d 3e 4f 1b 01 be de 2a 5c bd 8c 25 53 3d
       0.18516898 -0.12608074 -0.05375182 0.05154948
0003a0 26 56 c7 3d 1c a1 f7 bd 51 dc 27 3d 6b 10 6b bd
       0.097332284 -0.12091276 0.040981594 -0.057388704
0003b0 66 d5 96 bd ff 74 d8 bd 21 e9 05 be c7 c0 e6 3c
       -0.07364921 -0.1056919 -0.13077213 0.028168095
0003c0 d0 2a e5 3d 8b 24 4f bd 1d 82 f6 bd 43 b2 11 3e
       0.111898065 -0.05057196 -0.12036536 0.14228158
0003d0 05 55 ac bd 96 8c 0f 3e 0e 61 84 3d 1a b0 7b bd
       -0.08414654 0.14018473 0.06463824 -0.06144724
0003e0 cd bc 46 be cc 49 02 3e 65 46 c6 bd 80 31 b0 3d
       -0.1940796 0.12723464 -0.096813954 0.086031914
0003f0 22 82 96 3e ae 8f 85 be f1 30 9a bb 88 d7 bc 3c
       0.29396158 -0.2608618 -0.0047055413 0.023051992

rnn.rnn_cell.bias_ih f4 [64]
000000 67 5d c2 bd a0 01 ce bc ac c0 c0 bd 8d e3 d4 3d
       -0.09490471 -0.02514726 -0.09411749 0.10394964
000010 89 14 dd bd 62 bf 5b bc 1c e8 4b 3d 46 87 a9 bd
       -0.107949324 -0.013412328 0.049781904 -0.082777545
000020 bd 40 86 bd 38 dd b3 3d ac 17 a5 bc 73 21 62 3c
       -0.065553166 0.087824285 -0.02015289 0.01380192
000030 16 ac c4 3d a5 21 79 3d d9 34 76 3d 11 6a 35 3d
       0.09603135 0.0608231 0.060108993 0.044290606
000040 90 9f 4c 3b 51 35 32 bd 16 a4 83 bd 24 a7 88 bd
       0.0031223036 -0.043507878 -0.06427781 -0.066725045
000050 46 15 42 bd 1c 76 04 3e f2 b0 5b bc 56 e3 0d be
       -0.04738357 0.1293568 -0.013408886 -0.13856253
000060 e1 ea 50 3d 0e c3 11 be d2 ee a7 3d 1e f1 89 bd
       0.051005248 -0.14234564 0.08199848 -0.067354426
000070 aa c0 c0 bd 1c af d1 3c 69 55 f0 bd a8 0f eb bb
       -0.09411748 0.025596194 -0.11735041 -0.007173497
000080 b1 09 bf 3c d1 64 5e 3d 7b 8e ba 3d 5f b5 9e bc
       0.02332005 0.054295365 0.09109207 -0.019373594
000090 06 78 67 3d 61 8e 02 3e b4 32 6d bd dc 69 82 3d
       0.056510948 0.12749626 -0.057909682 0.06367847
0000a0 a5 f5 2a bd dd 71 91 3d 80 ee 72 3d 2e de 8b 3d
       -0.04173817 0.07101796 0.059309483 0.06829487
0000b0 a2 1b 10 3d 85 7d 9c bb b0 f4 d8 bd 47 10 c2 3c
       0.035182603 -0.0047757053 -0.105935454 0.023689402
0000c0 2c fa 49 bd 78 d5 74 3d f1 cb f6 bd 9b 0b 5d 3d
       -0.049310848 0.059773892 -0.120506175 0.053966146
0000d0 79 2c 0d be e6 15 d6 bd 87 11 70 bd 6d b8 e8 bc
       -0.13786496 -0.104533955 -0.058610465 -0.028408254
0000e0 8f d6 f4 3d 9e 87 ae 3c e6 25 f3 3c 20 c7 8e bd
       0.11954986 0.021304902 0.029681157 -0.06971574
0000f0 fe 8e 5b 3c 34 62 16 bc 1f 19 68 bb 8e 89 a0 bd
       0.013400791 -0.009178687 -0.0035415364 -0.078387365

rnn.rnn_cell.bias_hh f4 [64]
000000 63 13 89 3b c8 fd e7 3d fa b6 b2 bd 7b 7f 0d 3d
       0.0041832193 0.11327702 -0.08726306 0.034545403
000010 48 7e bc bb a4 2e b3 3d dc 59 a7 3a 95 f1 d5 3c
       -0.0057523586 0.0874913 0.0012767869 0.026116172
000020 cd ab 7e bd 84 f9 ac bd 4b f9 2a 3c 66 db a9 bd
       -0.06217556 -0.08446029 0.010435413 -0.082938
000030 81 93 35 bd 9e 49 16 bd f0 7b 31 bd c9 9b 08 3e
       -0.044330124 -0.0366913 -0.043331087 0.13340677
000040 7d 87 90 3d 6c 93 cd 3d 30 b4 9d 3d 13 b9 fa 3c
       0.07057092 0.10037884 0.07700384 0.030605828
000050 68 91 e2 3d 0b 86 99 3d 17 d4 87 bd a4 e7 58 3d
       0.1106289 0.0749627 -0.0663225 0.052955285
000060 e7 54 cb 3d c2 d4 09 be 63 41 6d bd aa e3 1f 3d
       0.09928303 -0.13460067 -0.057923686 0.039035477
000070 c2 d8 c7 3d f2 df e9 3c cb 27 f5 3d dc 8a bb bd
       0.0975814 0.028549168 0.119704805 -0.09157345
000080 ed 47 ef bd 32 99 bd 3d 87 40 94 bd f1 0b 07 be
       -0.11683641 0.09257735 -0.0723887 -0.13188149
000090 59 91 d3 bd 81 e4 1b 3e c8 57 c1 3d c2 c9 05 3d
       -0.10330457 0.15223886 0.09440571 0.032663114
0000a0 ef fd 11 3e 0f b8 fb bd 19 b0 b9 bd a5 3d e4 3c
       0.14257024 -0.12290966 -0.09066791 0.027861426
0000b0 7a 7b 9c 3d 0b ab d1 bd c4 b6 11 bd 36 31 03 be
       0.07640739 -0.10237702 -0.03557469 -0.12811741
0000c0 7a 2f 51 3d 00 2c b4 bd a1 22 b5 3c 92 47 cd bd
       0.051070668 -0.08797455 0.022111239 -0.100234166
0000d0 04 8d 47 3d 98 ea cb 3d e0 19 0f 3e 96 48 d3 3b
       0.048718467 0.099568546 0.13974714 0.006447862
0000e0 5e bf 71 3d b5 76 35 bc f3 b0 07 be 40 82 a0 bd
       0.059020393 -0.011075665 -0.13251095 -0.07837343
0000f0 8e 46 77 3d 71 04 74 3d ca ac 74 bc 05 2e f8 bd
       0.06037002 0.05957455 -0.014933774 -0.121181525

fc1.weight f4 [64, 64]
000000 8b 3c c3 3d 63 16 a0 bd 51 b5 42 3d d7 a9 0c be
       0.09533032 -0.0781677 0.047536198 -0.13736664
000010 15 c5 19 bd 5d 09 23 3c 11 b3 5f be 69 44 9b bd
       -0.037541468 0.009950963 -0.21845652 -0.075814076
000020 fe 50 f5 bd 2f 24 9c bd cf 3d 9f bd 24 e9 09 3d
       -0.11978339 -0.07624089 -0.07775461 0.033669606
000030 76 2d c3 3d d8 c6 03 be 58 01 10 3e 05 b8 1a bd
       0.09530155 -0.12868822 0.14063013 -0.03777315
000040 39 15 03 3c 7f a6 0f 3d c7 4c ba bc 56 c8 c9 3d
       0.008000665 0.035070892 -0.022741688 0.09852664
000050 b4 09 0c be 85 bf 99 bd 41 bb 16 be 02 53 c7 3c
       -0.13675576 -0.075072326 -0.14719869 0.024331573
000060 b1 d4 e2 bd 4e 5c 99 3c b1 49 3d bd 50 39 a6 bc
       -0.11075724 0.018720772 -0.046212856 -0.020291
000070 c6 91 86 bd 02 e8 fb 3d 13 be 9d 3d a4 d2 d9 bd
       -0.06570773 0.12300111 0.077022694 -0.1063588
000080 70 cb de 3d 5c 64 a2 3d e6 cd 01 be 2a cc de 3d
       0.108786464 0.07929298 -0.126762 0.10878785
000090 6c 24 7f 3c c9 b4 98 bd 9c 3d 20 3d 0b cb f6 bd
       0.0155726485 -0.07456357 0.039121255 -0.12050446
0000a0 71 ac f2 bb 10 1a f1 bc f3 23 dd bc 03 bd 6e be
       -0.0074058105 -0.029431373 -0.026994681 -0.2331429
0000b0 ea b3 92 3d 1c a2 0f 3e e1 44 28 3c 02 e9 94 3d
       0.07163222 0.14026684 0.010270328 0.07271005
0000c0 56 5f c1 3d dd ab 19 bd 47 70 0c be 86 93 eb bd
       0.09442012 -0.037517417 -0.13714705 -0.11502747
0000d0 1d 7e fa bd 84 e0 3b 3d 89 ab a2 3d ce e0 41 3c
       -0.122310854 0.04586841 0.07942874 0.011833383
0000e0 ff 11 84 bc ce 07 44 3e 55 ad a9 bd 7e db 3d 3d
       -0.016121862 0.19143602 -0.082850136 0.046351902
0000f0 0c 5a 22 3d 40 e1 86 bd 03 1b 5a bd 21 33 2b 3e
       0.039636657 -0.06585932 -0.053248417 0.16718723
000100 b8 00 c0 bd 26 b0 e2 3c ef 1e 29 bd b3 a6 30 3c
       -0.09375137 0.027671885 -0.041289266 0.010781932
000110 9d a9 8b 3d 5f 54 8c 3d e8 b0 c0 3d 6c a3 ba bd
       0.068194605 0.0685203 0.09408742 -0.091132015
000120 02 56 fc bb 39 42 f2 bd 01 e1 e2 3d 1a d9 5d bd
       -0.0077006826 -0.11829037 0.11078072 -0.054162122
000130 d1 c7 7d bd 0f 6a 02 3e a5 24 1a 3d 2c 48 57 3d
       -0.061958138 0.1273577 0.037632603 0.052559063
000140 54 98 1d 3e 95 35 99 3d 84 ff 98 3d 4d d5 a1 bd
       0.1539014 0.07480923 0.07470611 -0.07902012
000150 52 19 0e bd 87 17 0c 3e af 9d e2 3c ad 99 e1 3d
       -0.034692116 0.1368085 0.02766308 0.110156395
000160 63 6b 80 3e 08 ed de bc 6f d8 8c bd 5b b1 43 bc
       0.2508193 -0.027212635 -0.06877219 -0.01194414
000170 00 15 c9 3c 19 34 17 3c 6e 2e 2c 3d 2a 4a 9f 3d
       0.024546146 0.00922873 0.042036466 0.077778175
000180 ec f4 17 be 77 6c 22 bb 06 ae 8e 3d 0b c1 fd bd
       -0.14839524 -0.0024783888 0.06966786 -0.12390336
000190 3f 76 8e 3b 6d 4b 86 3c e1 1d ab bd 52 d5 8f bc
       0.004347592 0.016393388 -0.08355308 -0.017557774
0001a0 15 94 f7 bd b3 ca 02 be f0 4b 8c 3d e6 58 16 3d
       -0.12088791 -0.12772636 0.068504214 0.036705874
0001b0 c1 23 14 be 92 3f e1 3d d7 91 db 3d 1b 9b 1f bd
       -0.14466764 0.10998453 0.10721176 -0.03896628
0001c0 23 8f 9a 3b 10 59 06 3e d9 f4 cf 3c cc 57 be 3d
       0.0047167703 0.13119912 0.025385307 0.0929409
0001d0 43 86 b4 bc b3 5e ba bc 24 87 38 bd 5a 77 88 bc
       -0.022036677 -0.022750234 -0.045050755 -0.016658474
0001e0 1f 74 8c be 97 c7 f5 bc 38 21 06 be d0 83 b3 bc
       -0.27432343 -0.030002398 -0.1309861 -0.021913439
0001f0 3a 79 72 bd 4a 08 9a bd bf 11 77 bd 85 f9 00 be
       -0.059197642 -0.07521112 -0.06031966 -0.12595184
000200 0a 51 4d bc 61 6b 02 3e b0 8d 81 bb c5 63 f0 bd
       -0.012531528 0.12736274 -0.003953658 -0.117377795
000210 57 8b 81 3c 38 5e 2d be c2 a7 b5 bd fb 8a 0d 3e
       0.015813513 -0.16930473 -0.08869888 0.13822548
000220 c1 fd 4d 3d cc 42 08 3e 1c 2f ce bc b9 93 e1 bc
       0.050290827 0.13306731 -0.025168948 -0.02753626
000230 03 8f 71 ba 82 dd 37 be 39 d5 3e 3e b1 33 19 bd
       -0.0009214731 -0.17955592 0.18636025 -0.037402812
000240 de 42 8d 3b 58 c1 fe 3c 0f 91 7e be 72 6a 96 bd
       0.0043109497 0.031098053 -0.24860023 -0.073445216
000250 98 d2 43 bc 31 2e ae bd 22 02 24 3e fd 0b ff 3d
       -0.011952065 -0.08504904 0.16016439 0.124534585
000260 0d 30 a7 bd 68 dd 2b 3d 20 eb 5e 3e 07 71 0d bc
       -0.08163462 0.041959196 0.2176938 -0.008632905
000270 65 46 8a bd e3 34 bf 3d 61 ee 66 3b 33 5f 14 bd
       -0.06751708 0.09336259 0.00352373 -0.0362236
000280 ac 42 f8 bd 1c 91 87 bd 25 0d 4b 3e 4e f4 60 bd
       -0.12122092 -0.06619474 0.19829233 -0.054920487
000290 08 59 01 bc dc 1b 1a 3e f6 a6 3f 3d 45 76 5d 3d
       -0.007894762 0.1504969 0.046790086 0.05406787
0002a0 57 47 62 be 9f 30 4f 3e 0a 0b 49 bd d3 bc 05 3e
       -0.22097526 0.20233391 -0.049082793 0.13060312
0002b0 98 cc 96 bd f9 4a e3 3d c5 79 51 3d e4 e2 95 3c
       -0.07363242 0.11098284 0.05114152 0.018296666
0002c0 cf 71 98 be fb 24 93 bd de e9 50 3b a4 c9 0f 3d
       -0.2977433 -0.07184788 0.0031877677 0.03510441
0002d0 36 a4 88 3d 3b 2a 30 be 34 b8 b3 3b fe 2a ef 3a
       0.06671946 -0.1720361 0.005484605 0.0018247066
0002e0 d2 8d 9a bd df 6d 69 3d 96 6b fc 3d f7 b7 94 bd
       -0.07546581 0.056989547 0.12325208 -0.07261651
0002f0 d4 2d 67 be c4 0f 78 bc f8 ee 19 3e 3a 85 03 be
       -0.22576076 -0.015140478 0.15032566 -0.1284379
000300 28 3f 39 bc d8 d7 c8 3c 5a e1 3d 3c 2b 55 dc bc
       -0.0113065615 0.024516985 0.0115893725 -0.02689608
000310 15 bd da 3d 0a 54 35 3d 1e 13 6d bd 02 72 f3 3d
       0.10680596 0.0442696 -0.05787956 0.1188698
000320 68 48 da bd 73 f6 df bd 8c 52 68 3e a9 61 1f be
       -0.10658342 -0.10935678 0.22687739 -0.15564598
000330 72 5c 74 3d 7b 85 0a be 46 7a 9e 3d 66 3a 61 bd
       0.059658475 -0.13527481 0.077381656 -0.054987334
000340 61 84 3e be bc 80 9f 3d 14 3d ee bc a7 8b fe 3d
       -0.18605186 0.07788226 -0.029081859 0.1242898
000350 2f 27 c6 bd 79 40 27 bd 6f 6f b7 bd 73 76 d5 3d
       -0.096754424 -0.04083297 -0.08956801 0.10422983
000360 8b 13 23 3e bb dd 49 bd be 6c 0a 3e 14 0d 14 3e
       0.15925424 -0.049283724 0.13518044 0.14458114
000370 e3 d6 47 3d 71 d0 1f bd fe c7 68 bd b0 90 09 bd
       0.048788916 -0.039017145 -0.056831352 -0.03358525
000380 af b0 b0 3d cd 22 41 bd dd df 93 bd da 66 69 3d
       0.0862745 -0.04715233 -0.07220433 0.056982853
000390 61 6e cc 3d 73 ea a1 bd 64 ab de bd 0c 24 f1 bd
       0.099819906 -0.07906046 -0.10872534 -0.117744535
0003a0 4d d1 bb bc 5d d3 a3 3c 5e 96 c9 3d 1c d2 5b bd
       -0.02292695 0.019998247 0.098431334 -0.053667173
0003b0 3f de a6 bd 76 59 c3 3d 98 5f 88 bc 04 fa be bd
       -0.08147859 0.09538548 -0.016647145 -0.093250304
0003c0 41 52 45 bd 65 54 2e 3e f6 4c 31 bd 13 58 81 3d
       -0.048174147 0.17024381 -0.043286286 0.06315627
0003d0 05 a2 2b be e1 a2 c0 3d 21 0a 6f 3d 91 ad 29 bd
       -0.16761024 0.09406067 0.05835927 -0.04142529
0003e0 4d fa c5 bd 75 dd 2c be b6 cd 70 be c2 1c ba bd
       -0.09666882 -0.16881354 -0.23515972 -0.09087516
0003f0 02 c6 20 be 8e 49 78 be cf fd 08 be 88 91 00 3e
       -0.15700534 -0.24246809 -0.1337807 0.12555516

fc1.bias f4 [64]
000000 51 7e b4 3c 12 4f 34 bd c0 e7 0e bc b1 51 2d bc
       0.022032889 -0.04402072 -0.008722246 -0.010578559
000010 1a f2 03 3e 80 d4 ef 3c 6a 33 13 3d 39 78 42 3e
       0.12885323 0.029276133 0.035937704 0.18991174
000020 ba 2d 2d 3c 98 7a 43 3d 47 08 49 bd 0d 2b 6a 39
       0.010569984 0.047724336 -0.04908016 0.00022332017
000030 80 d8 11 bd 2b d5 d3 3d 69 32 9e 3d 77 7d b4 3d
       -0.03560686 0.10343393 0.07724459 0.08812993
000040 b1 25 a9 3d e3 d4 60 bd e8 63 fa bc 64 b7 49 bd
       0.08259142 -0.054890525 -0.030565217 -0.04924716
000050 d4 97 62 3e 0a 27 e6 3c dc 9b 3b bc 27 59 96 bd
       0.2212823 0.028094787 -0.011450734 -0.07341223
000060 fc ac 3a 3d da 64 01 be 2b 7e f3 bc ec 08 89 3d
       0.045575127 -0.12636128 -0.029723248 0.06691155
000070 55 67 eb 3c cd 7e 5f bd 16 55 cd 3d c8 32 00 3e
       0.028735796 -0.054564286 0.100259945 0.12519372
000080 2d 8e 13 3e 1b be 78 3d e3 1f 85 3d ca 08 e7 3d
       0.14409705 0.060728174 0.065002225 0.11280973
000090 3a da 17 3d 02 fd a1 bd 8b fa 2b 3d 31 f9 99 3d
       0.03707335 -0.079095855 0.041986983 0.075182326
0000a0 f2 52 83 3d 9c 2c d3 bd 5a 80 de bc ee 29 d4 bc
       0.06412305 -0.10311243 -0.027160812 -0.0258989
0000b0 64 9f 9b 3d 1f 2d dc 3c eb 91 9e bc a5 dd 46 3d
       0.07598761 0.026876984 -0.019356688 0.04855122
0000c0 ba 4b c9 3d 87 f7 b1 bd a0 69 1d 3c d2 67 31 bc
       0.09828897 -0.0868979 0.0096077025 -0.010827975
0000d0 16 0b c4 bd 08 24 33 be 10 b1 cc 3d fd 72 92 bd
       -0.09572427 -0.17494214 0.099947095 -0.071508385
0000e0 b3 b5 c3 3c eb cf 02 3e 7a 0b ae 3c 6b 75 e6 3d
       0.023890352 0.12774627 0.021245707 0.112528645
0000f0 dc 9a a2 bd 0c ab d1 3d 28 0c e7 bd 5f c5 98 bd
       -0.07939693 0.10237703 -0.112816155 -0.074595205

fc2.weight f4 [18, 64]
000000 70 e8 4d be 8a 26 83 3e 56 46 4d 3d f1 f5 0a 3e
       -0.20108199 0.2561534 0.050115906 0.13570382
000010 f8 cb cd bc ab 88 57 3e 89 bb e5 3d 1d e2 47 be
       -0.025121674 0.21048228 0.1121741 -0.19519849
000020 1f 89 d4 3d 8e 0e 0d 3e 29 76 9b bd 57 8e c5 3d
       0.10377716 0.13775083 -0.07590897 0.0964629
000030 34 97 9c bd bf ee cf 3c 70 95 b7 3c 18 c3 de 3d
       -0.07646027 0.025382398 0.022410125 0.10877055
000040 34 4f 16 3e 5b 19 88 3d dd 16 01 be 8f fa 8e be
       0.14678651 0.06645461 -0.12606378 -0.27925536
000050 9e 5c 0e 3d e4 50 32 3d b8 c2 d7 b9 bc a8 8a be
       0.034756295 0.043534175 -0.00041153072 -0.2708186
000060 77 a6 f1 3b a1 55 b0 be 09 4e 23 3e aa ad 9e bd
       0.0073745805 -0.3444033 0.15947737 -0.077479675
000070 a0 eb 31 be 4c 9f 81 bd ee 4f 09 be 75 a0 bf 3c
       -0.1737504 -0.063292116 -0.13409397 0.023391942
000080 e8 c7 a1 3c 4b bd 8d bd 55 c4 f7 3d 8c 10 8a 3d
       0.019748643 -0.069208704 0.12097994 0.06741437
000090 08 c3 28 3d 1b 1e 5c 3d fe e8 ba bc 3d 66 9e bc
       0.04120162 0.05373965 -0.022816177 -0.01933586
0000a0 ba 09 12 3e 45 28 e1 3b f8 3e 9b bd c5 d2 f2 bd
       0.14261523 0.0068712556 -0.0758037 -0.11856607
0000b0 6e d7 1b 3e 21 d1 b7 bd a2 5c da 3d 6f 37 9a 3d
       0.15218899 -0.08975435 0.106621996 0.07530104
0000c0 6f 03 42 bc 68 79 06 be a8 7f 05 be dc 89 d9 3d
       -0.011841639 -0.1313225 -0.13036978 0.10621998
0000d0 ba 6d 59 be 4d b0 7e be 05 f0 ad 3c f1 71 a2 be
       -0.21233264 -0.24871941 0.021232614 -0.31727555
0000e0 20 20 1e 3e 24 77 2d 3e 0d 5d 0d be f5 c3 77 3c
       0.15441942 0.1693998 -0.13805027 0.015122403
0000f0 4a 14 c7 bd 2c 37 1b be 54 fe 02 bc 7a f3 d1 bd
       -0.09720667 -0.15157765 -0.007995207 -0.102515176
000100 cf 7d 02 3e ee 26 49 be 63 93 4b be f8 d9 15 3e
       0.12743305 -0.19643757 -0.19880442 0.1463393
000110 48 71 96 be 5a c7 ab bd 5a 6c 6b bd 61 34 05 be
       -0.29383302 -0.08387633 -0.05747638 -0.13008262
000120 03 08 94 be e7 70 6f bd b8 d6 f4 3d c1 7e a6 bd
       -0.28912362 -0.05845728 0.11955017 -0.08129645
000130 ea a1 75 be 25 3b 38 be 7d d4 ad bd ef c3 58 bd
       -0.23987547 -0.17991312 -0.084877945 -0.05292123
000140 78 e1 37 bd 6c 43 0f be 96 8b 23 be e5 0f 39 be
       -0.044892758 -0.13990563 -0.15971217 -0.1807247
000150 e9 93 63 3d 59 bd d1 bd ca c3 b6 3d a3 d3 47 bd
       0.05556098 -0.10241193 0.089240626 -0.048785817
000160 95 f2 5f be 30 8e b7 bd d0 9e 83 be 33 7d 23 3e
       -0.21869881 -0.08962667 -0.25707102 0.15965728
000170 4c fc 0d be 9e ce 9d 3d 89 4e 1d bd dc 24 85 be
       -0.13865775 0.07705425 -0.038404975 -0.26004684
000180 dc e6 40 be 48 01 6a 3d 35 72 11 bd 9a ab 52 be
       -0.18838066 0.05713013 -0.035509307 -0.20573273
000190 3c 71 a8 ba 7f 67 9d 3d 44 88 60 be 48 f2 f4 3c
       -0.0012851129 0.07685756 -0.21926981 0.029900685
0001a0 4a 5b c2 bd 0f 69 3c 3d 97 e7 81 be b7 73 9d 3d
       -0.09490068 0.04599863 -0.25372002 0.076880865
0001b0 41 33 eb 3c 12 b0 b5 3d eb a3 86 3d 32 bf c9 bd
       0.028710963 0.08871473 0.065742336 -0.09850921
0001c0 a9 7c 93 3d 5e 47 97 3d 06 76 50 bc 67 91 cb 3d
       0.072015114 0.07386659 -0.0127234515 0.09939843
0001d0 a9 c0 75 be f8 43 81 3d 2e 68 26 bc f8 a4 63 be
       -0.23999275 0.06311792 -0.010156674 -0.222309
0001e0 19 a2 0b be 28 65 7c 3d 46 6e aa be 44 20 94 3d
       -0.13636054 0.061619908 -0.33287257 0.07232717
0001f0 45 bd b9 bd d8 ff be be 1e 63 26 be 0c e4 4a be
       -0.090693034 -0.37304568 -0.16248748 -0.19813555
000200 0b 02 24 be 7c ba 3d 3c f1 a3 39 3e 68 1d b2 bd
       -0.16016404 0.011580106 0.18128945 -0.08697015
000210 b3 e4 7a 3d a9 48 19 bd 79 f3 9c 3d fa 04 4a 3d
       0.06125326 -0.03742281 0.07663626 0.049321152
000220 be 5a 11 3d 30 e9 e7 bd 5a c2 fe bd ae 8c 81 bd
       0.03548693 -0.11323774 -0.12439413 -0.06325661
000230 fc 14 d6 bb e5 91 a2 3c 72 cf 80 3b 98 73 1f 3e
       -0.0065332633 0.019844959 0.0039309794 0.1557144
000240 56 8f 04 3e d3 3e f2 3d e5 5a 39 3d 71 ea 5f 3d
       0.12945303 0.11828389 0.0452527 0.05466694
000250 50 3b 3c 3d 8e 5e a9 3c 39 bc 20 3d 0f 3a 8d 3d
       0.045955002 0.02067497 0.039242003 0.068958394
000260 45 6d 23 bd a1 82 86 3c 40 ed 0c 3d 91 9a 77 be
       -0.03989913 0.01641971 0.034405947 -0.24180056
000270 8e 06 d7 3d 60 b5 d9 bd 96 5b f3 3c 84 84 bd 3d
       0.10499297 -0.10630298 0.029706758 0.09253791
000280 c3 15 98 3d dd a9 53 be d5 f3 4d bd a2 49 c5 3d
       0.07426026 -0.20670266 -0.050281364 0.09633185
000290 fe 2c 15 be 91 1a ea bd 29 81 07 3e ca 03 66 3d
       -0.14567944 -0.114308484 0.13232864 0.056155957
0002a0 d1 2f 9b 3d 8b d4 05 3b 7d 71 0f bd 21 a1 f6 bd
       0.0757748 0.0020420875 -0.03502034 -0.12042452
0002b0 80 f4 21 bd 7f 6e 11 be 8e a6 74 bb 9e e9 dc bc
       -0.039539814 -0.14202307 -0.003733072 -0.026966866
0002c0 5e e9 57 bd d8 9a 3d 3d ef ca cc bc 18 fb 02 bd
       -0.05271279 0.04629025 -0.02499911 -0.031977743
0002d0 49 36 02 3e e5 28 12 be 28 08 90 3d 68 da 69 bd
       0.1271602 -0.14273413 0.07032806 -0.057093054
0002e0 10 43 81 bd 38 d6 20 3d c7 3f c3 bc 59 8a 63 bd
       -0.06311619 0.039266795 -0.023834122 -0.05555186
0002f0 fa 14 be bd 9f f9 34 3d 9d 91 00 be 5e 7a 23 3e
       -0.09281345 0.04418337 -0.12555547 0.15964648
000300 8c 41 6a 3d 2a 73 ab bd 6c 44 63 bd af 01 98 bd
       0.057191417 -0.08371575 -0.055485174 -0.07422196
000310 11 e0 ee bd 20 96 02 be 28 a8 ae bd fc 3e 0f bc
       -0.11663831 -0.1275258 -0.08528167 -0.008743044
000320 a6 ed 72 3d d3 6b d2 bd d1 06 70 bd bb f7 05 bd
       0.05930867 -0.10274472 -0.05860025 -0.032706957
000330 69 17 0a 3d ed b0 c9 3d f6 39 2d be 19 cb 2b 3c
       0.033713732 0.09848199 -0.16916642 0.010485434
000340 a0 f5 e9 3b 84 f8 1b bd e6 02 96 3d b8 d6 07 3e
       0.0071398765 -0.0380788 0.073247716 0.13265502
000350 bc 26 0d be b3 5a 2f be e1 be 2f be 16 2e 0f 3d
       -0.13784307 -0.17124443 -0.17162658 0.03495606
000360 d4 10 2a be ca 66 b5 3d bc bf b0 3d 04 7c 37 be
       -0.16607982 0.08857496 0.086303204 -0.17918402
000370 5e 37 0e 3e 92 37 7b 3c f5 33 81 be b8 3e 00 be
       0.13888308 0.015333073 -0.25234953 -0.12523925
000380 93 1f 6b 3d 88 66 bb bd c7 91 31 bd a9 96 46 bd
       0.05740316 -0.09150416 -0.043351915 -0.048483524
000390 08 d5 69 bd 0c 97 79 bd cc ab 0c 3d c1 98 f8 3d
       -0.057087928 -0.060935065 0.034343526 0.121385105
0003a0 45 16 be 3d 9c 43 12 be ed d3 32 bd ac 60 44 bd
       0.09281591 -0.14283603 -0.04365914 -0.047943756
0003b0 8c fb ad 3b 07 9a 70 bd 8a 0f 16 be f6 23 00 3d
       0.0053095277 -0.058740642 -0.14654365 0.031284295
0003c0 f1 82 56 be 40 fe 90 3d 0f 6e 06 3d d7 e8 d4 3c
       -0.20948388 0.07079744 0.032819804 0.025989933
0003d0 4b 07 6a 3d 64 87 b1 bd 83 51 f2 3d 99 d8 88 bc
       0.05713586 -0.08668402 0.118319534 -0.016704844
0003e0 d2 f9 a5 bd 67 89 23 bd a0 dd 06 3d b8 cc 2f bc
       -0.0810429 -0.03992596 0.0329262 -0.010729961
0003f0 74 13 87 3d aa 16 86 3d 97 25 ac bd eb df bc 3d
       0.06595507 0.065472916 -0.08405607 0.092223965

fc2.bias f4 [18]
000000 65 74 9b 3d 36 43 1f bb 53 84 04 be cf 62 fb 3b
       0.0759056 -0.0024301535 -0.12941103 0.007671691
000010 ee 42 c0 bd e8 d7 26 3c e9 e6 6f bd 54 29 a7 3d
       -0.09387766 0.010183312 -0.058569822 0.081621796
000020 ed ec 3e bd 3c 16 a2 bd 8d d8 8e bc 0b 8a 70 3d
       -0.04661267 -0.07914397 -0.017437244 0.058725398
000030 b7 9a 95 bd 02 be b6 3d 46 4f 38 be dd ac 1c 3b
       -0.073049 0.0892296 -0.1799899 0.0023906745
000040 3a d4 2e 3e 88 17 cf 3d
       0.17073146 0.1011191
